DL/A2/bbrbm2_task5.pth (torch_old, 964615 bytes, 3 tensors)

v_bias f4 [1, 600]
-0.21794711 -0.113829866 -0.31865147 -0.21403031 -0.19621034 -0.19077396 -0.21896635 -0.17986512
-0.29016644 -0.21279576 -0.66922706 -0.3433721 -0.64983636 -0.34462515 -0.31106764 -0.6561761
-0.16566156 -0.34053105 -0.4256123 -0.25240046 -0.063737966 -0.28168538 -0.158491 -0.25989744
-0.20341924 -0.19604412 -0.21155871 -0.2751884 -0.26733598 -0.8242068 -0.19585635 -0.7183558
-0.13356732 -0.22468774 -0.2982586 -0.18672498 -0.08092443 -0.7934917 -0.12614897 -0.5472261
-0.3346955 -0.26240245 -0.49296466 -0.30097878 -0.2972216 -0.2347412 -0.24782667 -0.20420568
-0.22157149 -0.22547287 -0.22849806 -0.20389412 -0.098451845 -0.2675055 -0.18116593 -0.16527255
-0.24252364 -0.26201224 -0.5982357 -0.29942155 -0.34203508 -0.26795635 -0.23528685 -0.42170835
-0.25059414 -0.14487563 -0.2340407 -0.26249132 -0.33084118 -0.5354137 -0.29434758 -0.41373456
-0.29116628 -0.6405805 -0.26101202 -0.45724544 -0.5483596 -0.37857506 -0.17179126 -0.3180646
-0.25160363 -0.22146624 -0.24831049 -0.5467575 -0.122699976 -0.3525367 -0.17129603 -0.2700776
-0.26897225 -0.14497682 -0.49509764 -0.6719019 -0.190883 -0.7812263 -0.42584997 -0.29208422
-0.28361633 -0.25478867 -0.2415878 -0.2855061 -0.0985027 -0.3081068 -0.6924433 -0.27809972
-0.32303798 -0.21913125 -0.265374 -0.2815764 -0.32815787 -0.44083112 -0.17998342 -0.8610342
-0.45654348 -0.5521316 -0.29615468 -0.33401623 -0.27174622 -0.29963815 -0.36396915 -0.3242199
-0.18545176 -0.13138248 -0.23775575 -0.3509171 -0.39513254 -0.24737701 -0.23743618 -0.12167118
-0.014376599 -0.3945494 -0.9283601 -0.25661784 -0.2823928 -0.17477849 -0.25596848 -0.23366377
-0.23019813 -0.23592925 -0.104371645 -0.15740052 -0.45620435 -0.255213 -0.20679474 -0.37051538
-0.48635474 -0.6403117 -0.20990686 -0.35687962 -0.3112551 -0.18535864 -0.16535841 -0.88468236
-0.2698108 -0.29984558 -0.39654392 -0.20459472 -0.34684703 -0.13800144 -0.18199523 -0.2550833
-0.19513355 -0.2260239 -0.20173872 -0.25106338 -0.19945627 -0.1373945 -0.21363798 -0.3834117
-0.1730551 -0.7339999 -0.3198451 -0.15215106 -0.35821417 -0.19353655 -0.42262128 -0.15102777
-0.64930254 -0.27334315 -0.2620256 -0.31185707 -0.24049653 -0.54239446 -0.506843 -0.4329459
-0.35478184 -0.2712617 -0.88850677 -0.21470015 -0.7247953 -0.103017524 -0.8445414 -0.2275748
-0.2985652 -0.18989056 -0.6461569 -0.24794419 -0.2358105 -0.2502595 -0.17128778 -0.19807075
-0.27552837 -0.0683824 -0.11908105 -0.28507236 -0.21704082 -0.24670513 -0.2836018 -0.54764867
-0.49445844 -0.47434738 -0.25970516 -0.31524822 -0.24768257 -0.17089763 -0.80131304 -0.25105712
-0.22385673 -0.19326307 -0.25526696 -0.4085105 -0.24615 -0.24852836 -0.4758882 -0.2509002
-0.22817977 -0.2657663 -0.24251233 -0.11306793 -0.23604265 -0.19357738 -0.2298487 -0.17162856
-0.16509011 -0.28173167 -0.37206918 -0.21768194 -0.2968528 -0.2584073 -0.21699265 -0.83344793
-0.4858168 -0.49308994 -0.26275772 -0.37873524 -0.22309549 -0.30295062 -0.44897652 -0.16879633
-0.19894081 -0.7107603 -0.31199864 -0.19360065 -0.21274742 -0.22616586 -0.18270452 -0.24665791
00000000: 872d 5fbe a21f e9bd 4926 a3be c32a 5bbe
00000010: 5deb 48be 405a 43be b738 60be 902e 38be
00000020: b290 94be 22e7 59be 7752 2bbf 78ce afbe
00000030: ad5b 26bf b572 b0be 4244 9fbe 28fb 27bf
00000040: 2fa3 29be 165a aebe dbe9 d9be a23a 81be
00000050: 0d89 82bd 1139 90be 774b 22be 4711 85be
00000060: 224d 50be cabf 48be d9a2 58be 7ee5 8cbe
00000070: 43e0 88be 38ff 52bf 918e 48be 2ae6 37bf
00000080: dfc5 08be 8b14 66be 5ab5 98be d534 3fbe
00000090: b5bb a5bd 4622 4bbf 322d 01be 0217 0cbf
000000a0: 355d abbe 9d59 86be dd65 fcbe e419 9abe
000000b0: 6e2d 98be ff5f 70be 46c6 7dbe 4b1b 51be
000000c0: a3e3 62be 5ce2 66be 65fb 69be 9fc9 50be
000000d0: 1fa1 c9bd 7bf6 88be 9083 39be 353d 29be
000000e0: 1e58 78be 7826 86be fa25 19bf c84d 99be
000000f0: 391f afbe 9331 89be 09ef 70be 28ea d7be
00000100: e04d 80be 475a 14be 5ea8 6fbe 4365 86be
00000110: 0464 a9be df10 09bf bab4 96be 04d5 d3be
00000120: bf13 95be 15fd 23bf 5ea3 85be 131c eabe
00000130: 4b61 0cbf 97d4 c1be 0cea 2fbe 5dd9 a2be
00000140: 31d2 80be 0cc8 62be 1b45 7ebe 4df8 0bbf
00000150: 204a fbbd b17f b4be 3a68 2fbe 9c47 8abe
00000160: bbb6 89be ce74 14be 707d fdbe c301 2cbf
00000170: d576 43be 72fe 47bf 0209 dabe 108c 95be
00000180: 2936 91be a973 82be cb62 77be db2d 92be
00000190: c9bb c9bd 2dc0 9dbe f743 31bf 1663 8ebe
000001a0: 3c65 a5be f163 60be 1adf 87be c82a 90be
000001b0: 4f04 a8be 9eb4 e1be 934d 38be bd6c 5cbf
000001c0: 11c0 e9be 7f58 0dbf 96a1 97be 2d04 abbe
000001d0: 5222 8bbe 2c6a 99be 2a5a babe 2700 a6be
000001e0: 11e7 3dbe 2189 06be 3e76 73be 68ab b3be
000001f0: d04e cabe 6650 7dbe 7822 73be bd2e f9bd
00000200: d48b 6bbc 6102 cabe 02a9 6dbf 6a63 83be
00000210: ca95 90be 22f9 32be 4d0e 83be 8e45 6fbe
00000220: 0fb9 6bbe 7097 71be cdc0 d5bd 9a2d 21be
00000230: 9e93 e9be 47ab 82be 00c2 53be 31b4 bdbe
00000240: 7d03 f9be 78eb 23bf d3f1 56be edb8 b6be
00000250: d45c 9fbe a8ce 3dbe b753 29be 8b7a 62bf
00000260: a424 8abe 5c85 99be ce07 cbbe 4781 51be
00000270: ef95 b1be 4050 0dbe f55c 3abe 479a 82be
00000280: 17d1 47be cf72 67be 9894 4ebe 618b 80be
00000290: 443e 4cbe 25b1 0cbe eac3 5abe 8a4e c4be
000002a0: 5b35 31be 6be7 3bbf bdc2 a3be 7dcd 1bbe
000002b0: d967 b7be 722e 46be d161 d8be 06a7 1abe
000002c0: b138 26bf a2f3 8bbe 3828 86be bbab 9fbe
000002d0: b944 76be 5dda 0abf 76c0 01bf 16ab ddbe
000002e0: f7a5 b5be d0e2 8abe 2e75 63bf 5bda 5bbe
000002f0: 2f8c 39bf dafa d2bd dd33 58bf 5e09 69be
00000300: 8add 98be ac72 42be 8a6a 25bf 15e5 7dbe
00000310: 4f78 71be 0322 80be 1066 2fbe 0fd3 4abe
00000320: 0e12 8dbe 120c 8cbd c4e0 f3bd 01f5 91be
00000330: f33f 5ebe 45a0 7cbe 4134 91be b432 0cbf
00000340: a829 fdbe a9dd f2be 13f8 84be 3768 a1be
00000350: 80a0 7dbe caff 2ebe da22 4dbf 8f8a 80be
00000360: b33a 65be c1e6 45be 5ab2 82be 4a28 d1be
00000370: bf0e 7cbe 387e 7ebe 9ea7 f3be fe75 80be
00000380: f5a7 69be 8512 88be 2755 78be 2990 e7bd
00000390: 2ab5 71be 2639 46be 755d 6bbe 66bf 2fbe
000003a0: 620d 29be 223f 90be da7f bebe 04e8 5ebe
000003b0: 17fd 97be f64d 84be 5233 5ebe d85c 55bf
000003c0: fbbc f8be 4976 fcbe 2e88 86be 96e9 c1be
000003d0: 2573 64be 581c 9bbe 40e0 e5be f2d8 2cbe
000003e0: 24b7 4bbe 63f4 35bf 49be 9fbe 403f 46be
000003f0: 76da 59be 0698 67be e516 3bbe e493 7cbe

h_bias f4 [1, 400]
0.119746156 0.3179707 -0.35814756 1.1909009 -0.36945882 -0.22322235 0.9266284 1.0925896
-0.676189 1.5347267 -0.13793354 -0.49405304 0.17468016 -0.18338178 0.0997576 1.0375997
-0.03213398 -0.43233693 0.21643783 0.912526 -0.36110243 -0.10440029 1.0416598 0.85939056
-0.2943132 -0.35693255 0.16582993 0.2769539 -0.09422205 0.40522242 1.2541351 0.5159778
-0.63329923 -0.91839045 1.4350135 0.92276704 1.3944248 -0.4008408 -0.3072885 1.3721852
0.9988655 0.12963921 0.71024173 0.09950835 1.0847442 0.7721035 -0.3241025 -0.326927
-0.69478863 0.7052343 0.9019234 -0.45356607 1.0055041 -0.27140376 0.22807932 -0.23368725
-0.5600056 -0.19541992 -0.37186405 -0.50764817 -0.18436706 0.25625968 0.62502104 -0.23811711
0.38360575 0.39313567 -0.28791896 0.024163987 -0.0646315 -0.6543436 -0.6149687 -0.006897531
0.36784032 0.22638029 0.13559206 0.6205287 -0.28624514 -0.44807282 0.7241341 1.5709698
-0.52069086 -0.32308647 0.088792905 1.0158105 0.34191468 -0.55833924 0.88414365 0.6298957
1.1158646 -0.3766758 0.8389989 0.7072757 -0.36529052 0.87775284 1.1381966 -0.36723283
0.7028159 0.72829765 -0.44119048 -0.512286 0.20612432 1.1553075 0.04474092 1.092991
0.86239433 0.40489876 0.6048577 -0.4302753 -0.17735331 0.90391254 0.793921 -0.5661823
0.55188495 0.21274541 -0.14857599 0.9810268 0.42142195 -0.50095254 0.66233766 0.011724539
0.2880544 -0.36075175 0.41790095 -0.23058546 0.44517174 -0.5166411 -0.5960401 -0.6270652
0.9314995 -0.38340762 0.55607444 0.6992751 0.46648347 0.865226 0.7521204 -0.20959048
-0.42497513 -0.08900117 0.9170757 -0.27215874 -0.23960993 1.1277412 0.6811678 0.6129758
-0.37201458 -0.5406208 0.9144266 0.57718736 -0.30117 -0.039531488 -0.7431282 -0.22538576
-0.013372865 -0.27895588 -0.046547465 -0.19253783 0.3897537 0.8069621 -0.05911364 0.6655806
0.3618699 0.84444094 -0.36471218 1.3488226 -0.48983556 -0.74978244 0.87802887 -0.055330392
0.5831565 0.78108567 -0.28796044 -0.42503163 -0.29599938 -0.70348024 1.184371 0.7529256
0.9984833 1.2574621 0.09393722 -0.21157864 0.63243943 0.3754536 0.7293847 0.5953957
-0.2295081 -0.20771188 0.44654423 -0.38093314 0.46871102 -0.7643919 0.8910732 -0.3604424
0.7173186 -0.6097784 1.1969028 1.0359243 1.0414131 -0.41324064 -0.2085 0.023165563
0.89265376 0.7420736 -0.5509394 -0.499408 -0.2280143 0.38085118 0.98461086 0.5654771
-0.5685951 -0.28667125 0.3059615 0.5235746 0.6770836 0.6372477 -0.3829619 -0.8609281
-0.38741553 -0.11333161 -0.48475605 -0.38309428 0.51095164 -0.1964766 -0.3289866 -0.26231238
1.2520263 -0.37686384 1.1481874 0.6144066 0.4985484 0.7311905 0.32432237 0.5045717
0.16856167 0.8865075 -0.13091107 -0.69198245 0.59331334 0.63423526 0.96550834 0.9900023
-0.31096327 -0.37969097 0.6447326 0.41828418 0.29112625 -0.2163321 -0.054230615 0.9737071
0.60748404 0.43342006 -0.40583986 0.27232543 -0.6411502 0.6705658 -0.24903457 -0.6255512
00000000: 793d f53d 0ecd a23e 1e5f b7be 716f 983f
00000010: b529 bdbe 6694 64be 8537 6d3f fad9 8b3f
00000020: b91a 2dbf ed71 c43f 733e 0dbe 85f4 fcbe
00000030: 5bdf 323e 6fc8 3bbe b64d cc3d 11d0 843f
00000040: ec9e 03bd 445b ddbe e1a1 5d3e 4e9b 693f
00000050: 6be2 b8be d2cf d5bd 1c55 853f 0501 5c3f
00000060: 38b0 96be ddbf b6be 52cf 293e e7cc 8d3e
00000070: 7df7 c0bd 5079 cf3e 8087 a03f 1f17 043f
00000080: e61f 22bf a31b 6bbf 86ae b73f 763a 6c3f
00000090: 837c b23f 013b cdbe eb54 9dbe c4a3 af3f
000000a0: a6b5 7f3f 24c0 043e 67d2 353f 09cb cb3d
000000b0: e6d8 8a3f 93a8 453f c3f0 a5be fa62 a7be
000000c0: abdd 31bf 3c8a 343f 74e4 663f d039 e8be
000000d0: 5cb4 803f 6ff5 8abe a08d 693e b64b 6fbe
000000e0: 875c 0fbf 291c 48be f764 bebe 3bf5 01bf
000000f0: b8ca 3cbe 7834 833e 6101 203f f9d4 73be
00000100: f967 c43e 1449 c93e 1d6a 93be 8ef3 c53c
00000110: 855d 84bd 1083 27bf 976e 1dbf af04 e2bb
00000120: 9155 bc3e 3cd0 673e a5d8 0a3e f8da 1e3f
00000130: b98e 92be cd69 e5be da60 393f 8a15 c93f
00000140: ff4b 05bf 976b a5be 0ed9 b53d 1406 823f
00000150: 710f af3e 52ef 0ebf 3d57 623f d840 213f
00000160: a7d4 8e3f a7db c0be a2c8 563f 0510 353f
00000170: 5c07 bbbe 69b4 603f 6db0 913f f105 bcbe
00000180: beeb 333f b771 3a3f b8e3 e1be 2d25 03bf
00000190: 4112 533e 1ee1 933f 4142 373d 21e7 8b3f
000001a0: e0c5 5c3f e44e cf3e f4d7 1a3f 0b4d dcbe
000001b0: 1b9c 35be d066 673f 683e 4b3f 53f1 10bf
000001c0: 5548 0d3f efd9 593e 4e24 18be 9324 7b3f
000001d0: 9ec4 d73e 6d3e 00bf f68e 293f 4818 403c
000001e0: de7b 933e 74b4 b8be 1df7 d53e 981e 6cbe
000001f0: 8ded e33e 9742 04bf 1696 18bf 5887 20bf
00000200: c076 6e3f 014e c4be e55a 0e3f b103 333f
00000210: ecd6 ee3e 737f 5d3f f68a 403f e39e 56be
00000220: 5796 d9be 3f46 b6bd 79c5 6a3f 6458 8bbe
00000230: 4e5c 75be d359 903f 0361 2e3f fbeb 1c3f
00000240: b278 bebe 2066 0abf dd17 6a3f 8dc2 133f
00000250: f432 9abe c5eb 21bd a63d 3ebf 86cb 66be
00000260: dc19 5bbc 4ed3 8ebe 8ea8 3ebd a328 45be
00000270: cc8d c73e 1195 4e3f 2521 72bd 7d63 2a3f
00000280: 0347 b93e 482d 583f 8ebb babe 38a6 ac3f
00000290: bacb fabe bef1 3fbf 80c6 603f 1fa2 62bd
000002a0: bf49 153f 3bf5 473f 8d6f 93be bf9d d9be
000002b0: 3b8d 97be 4817 34bf 7899 973f bbbf 403f
000002c0: 9a9c 7f3f 85f4 a03f 2862 c03d 12a8 58be
000002d0: 8de7 213f 743b c03e f5b8 3a3f da6b 183f
000002e0: 2c04 6bbe 6cb2 54be 72a1 e43e ab09 c3be
000002f0: e4fa ef3e 30af 43bf 601d 643f e88b b8be
00000300: 31a2 373f 701a 1cbf 1c34 993f 2b99 843f
00000310: 064d 853f 4794 d3be 0681 55be b5c5 bd3c
00000320: f584 643f 89f8 3d3f 5d0a 0dbf 68b2 ffbe
00000330: 957c 69be edfe c23e 750f 7c3f 1bc3 103f
00000340: 738f 11bf 93c6 92be fca6 9c3e fc08 063f
00000350: 5a55 2d3f aa22 233f 9513 c4be c965 5cbf
00000360: 545b c6be 671a e8bd f231 f8be ef24 c4be
00000370: bacd 023f 2931 49be ee70 a8be cf4d 86be
00000380: 6642 a03f 4cf4 c0be cef7 923f c049 1d3f
00000390: bc41 ff3e 4d2f 3b3f 950d a63e 9c2b 013f
000003a0: 6e9b 2c3e 28f2 623f 8d0d 06be c325 31bf
000003b0: 62e3 173f 3e5d 223f 8e2b 773f ca70 7d3f
000003c0: 9436 9fbe db66 c2be 320d 253f 5829 d63e
000003d0: 800e 953e 2986 5dbe ec20 5ebd de44 793f
000003e0: 1384 1b3f 3ce9 dd3e 3eca cfbe 3d6e 8b3e
000003f0: 6b22 24bf 33aa 2b3f eb02 7fbe 2024 20bf

weights f4 [400, 600]
0.0064726463 -0.8224725 0.31064802 -0.37593585 -0.39384726 -1.0018165 -0.48702103 -0.033064455
-0.41244248 -0.93438303 -0.9192429 -1.3440493 -0.19286141 0.5127576 -2.4611998 -1.190854
-0.7697118 -0.7520866 -0.64098394 0.92703784 1.2902497 -1.4110955 -0.55146 -0.7277225
2.0183856 -0.18204656 0.8728825 -0.22370347 -0.20355183 0.47655067 0.88157064 0.4760336
-0.84032965 0.34219518 -0.054725148 0.68557787 -0.81898797 0.62048995 1.2056272 0.04028157
-1.0495353 -0.1585011 0.13922125 1.619272 -1.6613486 0.94024473 -0.38833484 -0.65771204
0.5355901 0.70745796 -0.89407414 -0.0458499 -0.025589176 0.3548646 -0.64030135 -1.9482042
1.2660652 -1.3360252 0.068757676 0.55657077 -1.0858259 -0.42833704 0.006287577 -0.098903246
-0.13215242 -1.4456857 -1.0938032 -1.3663615 -0.28400442 -0.23893683 0.64349926 -0.357546
-0.9930306 -0.5262497 -0.017194396 -0.39526433 1.1683502 0.9984964 -0.87347627 -1.1062936
-1.3828211 -1.9830991 0.22861207 -1.2185395 1.1563435 -3.8242934 1.4498545 1.2164932
-0.38669997 0.3560812 0.20905392 -1.1809962 -0.8853324 -0.29006922 -0.9123212 0.48383632
-0.036236174 0.046291336 1.9130615 -0.27487358 -1.5249125 -0.98902345 -0.65117383 -1.0278444
-0.5353781 0.15318274 -1.9243578 -0.12669988 0.49013743 1.0606333 -0.055743508 0.12367753
-0.3468512 -0.3809925 1.6887703 -0.0006170178 0.11492449 0.5222553 -0.5682647 -0.57894456
1.0510873 -1.560058 0.6328395 1.4376855 -1.3722202 -0.8883456 -0.7146878 0.24199736
-0.96136767 0.56106013 -0.13509654 0.30849937 0.1696105 0.37661636 0.58211803 0.22261652
1.984281 0.24676974 -2.116826 -2.0514195 0.7153027 1.1870435 -0.10994651 0.6174912
-1.3073045 0.6145721 -0.50729436 -1.0667927 0.5008837 -0.0014290202 -1.1276498 2.049321
-1.8346723 0.5944962 0.4314337 -0.30930278 -0.15960382 -0.88576335 -0.27083147 -1.5327331
0.7176939 -1.5966043 -0.25303861 -1.0636685 -1.9687104 0.5465992 -0.07331053 -0.77211314
0.010747316 0.0020620353 -1.0796814 2.0990133 1.123192 0.6470768 0.31010586 0.29814795
0.08352076 -1.9762267 0.4786487 0.86606354 1.1898581 0.545321 -0.501853 1.6795033
-0.51956743 -0.97717565 -0.75508696 0.30458403 0.06443233 -1.4515891 0.67329365 0.4411122
-0.4065713 -0.21265475 0.78279835 -0.043878775 0.03441269 0.34971225 0.22313331 -0.5097562
0.42841068 -1.0243185 -1.2607135 -0.76252437 0.7381669 0.3984648 -0.6655977 -0.6881405
-0.3096434 -0.1897493 -0.26090574 -0.51815087 -0.51104826 -0.34975255 0.22050479 -1.8560811
1.8725734 -0.2886285 0.029339895 0.052023977 0.59672475 0.53383833 -0.73776287 -0.14475036
-1.4479644 -0.7937942 -1.22171 -1.0428495 0.7403418 -1.3492761 -0.25238723 -0.8469143
-0.3979902 0.64172846 1.0424739 -1.4778718 -0.5074662 -0.5365273 -1.0703973 0.27639568
-0.36456603 2.216425 -0.2875563 -2.3572035 -0.59607553 0.5159854 0.20783716 0.9495258
0.048529606 0.26307407 -0.7294119 0.033626463 -0.12355048 -0.7836677 -0.065193534 0.7797053
00000000: 7e18 d43b 8f8d 52bf 420d 9f3e aa7a c0be
00000010: 59a6 c9be 863b 80bf d25a f9be 986e 07bd
00000020: a92b d3be ba33 6fbf 8153 6bbf cf09 acbf
00000030: 767d 45be 1544 033f 4c84 1dc0 e76d 98bf
00000040: d50b 45bf bf88 40bf 8617 24bf 5a52 6d3f
00000050: e726 a53f c79e b4bf 7c2c 0dbf 064c 3abf
00000060: 3b2d 0140 6a6a 3abe 3a75 5f3f 8612 65be
00000070: e46f 50be 73fe f33e 9dae 613f adba f33e
00000080: d81f 57bf 3534 af3e 7a27 60bd 0882 2f3f
00000090: 32a9 51bf 6ed8 1e3f fe51 9a3f 4afe 243d
000000a0: 2c57 86bf 1d4e 22be 0490 0e3e 4e44 cf3f
000000b0: 12a7 d4bf e1b3 703f d3d3 c6be d15f 28bf
000000c0: 6f1c 093f f71b 353f 0be2 64bf 1bcd 3bbd
000000d0: 64a0 d1bc d0b0 b53e caea 23bf c15e f9bf
000000e0: 6d0e a23f e002 abbf d3d0 8c3d 6c7b 0e3f
000000f0: 58fc 8abf fe4e dbbe 0508 ce3b c98d cabd
00000100: f752 07be 3b0c b9bf be01 8cbf efe4 aebf
00000110: 0769 91be dbab 74be 5ebc 243f 4510 b7be
00000120: 4137 7ebf 4db8 06bf 43db 8cbc 1660 cabe
00000130: 808c 953f 769d 7f3f 249c 5fbf 079b 8dbf
00000140: 4800 b1bf 31d6 fdbf 4819 6a3e 1af9 9bbf
00000150: 1003 943f 39c1 74c0 d594 b93f 0db6 9b3f
00000160: 8afd c5be 4650 b63e 3b12 563e e22a 97bf
00000170: 25a5 62bf f483 94be e28d 69bf 65b9 f73e
00000180: 626c 14bd fc9b 3d3d 33df f43f 3bbc 8cbe
00000190: 5530 c3bf a430 7dbf 54b3 26bf 6890 83bf
000001a0: 8a0e 09bf f0db 1c3e 5b51 f6bf 9dbd 01be
000001b0: 4bf3 fa3e d5c2 873f 4e53 64bd a54a fd3d
000001c0: 7b96 b1be 7311 c3be a029 d83f 5dbf 21ba
000001d0: 885d eb3d 86b2 053f cc79 11bf b635 14bf
000001e0: 078a 863f fbaf c7bf c501 223f 1406 b83f
000001f0: e9a4 afbf 9e6a 63bf c8f5 36bf 28ce 773e
00000200: 311c 76bf a3a1 0f3f bf56 0abe a1f3 9d3e
00000210: 60ae 2d3e dcd3 c03e b005 153f 96f5 633e
00000220: ebfc fd3f 35b1 7c3e 147a 07c0 754a 03c0
00000230: 141e 373f 0bf1 973f a32b e1bd e713 1e3f
00000240: c155 a7bf 9954 1d3f 0bde 01bf aa8c 88bf
00000250: ea39 003f f64d bbba d456 90bf 1328 0340
00000260: 8bd6 eabf e730 183f e1e4 dc3e ef5c 9ebe
00000270: 2f6f 23be 63c1 62bf 6caa 8abe 9930 c4bf
00000280: caba 373f 885d ccbf 478e 81be 4a26 88bf
00000290: b4fe fbbf eded 0b3f d523 96bd 35a9 45bf
000002a0: 8315 303c 3623 073b 0033 8abf 3c56 0640
000002b0: c1c4 8f3f d3a6 253f 32c6 9e3e d9a6 983e
000002c0: ef0c ab3d fff4 fcbf 7111 f53e 57b6 5d3f
000002d0: 454d 983f 289a 0b3f 7079 00bf f7f9 d63f
000002e0: 5f02 05bf 2f28 7abf 614d 41bf 70f2 9b3e
000002f0: 19f5 833d accd b9bf f95c 2c3f 75d9 e13e
00000300: 1d2a d0be 2bc2 59be 7965 483f 3bba 33bd
00000310: 52f4 0c3d 7c0d b33e 0f7d 643e 627f 02bf
00000320: a558 db3e de1c 83bf 0f5f a1bf cc34 43bf
00000330: 82f8 3c3f 9403 cc3e 9c64 2abf fa29 30bf
00000340: 9489 9ebe a44d 42be 7095 85be 89a5 04bf
00000350: 0fd4 02bf c412 b3be 02cc 613e 1194 edbf
00000360: 7cb0 ef3f 1dc7 93be 385a f03c 1817 553d
00000370: f4c2 183f a1a9 083f 07de 3cbf 7039 14be
00000380: e656 b9bf 1936 4bbf fe60 9cbf 187c 85bf
00000390: 0a87 3d3f 14b5 acbf e638 81be 60cf 58bf
000003a0: 5fc5 cbbe 5148 243f c96f 853f e72a bdbf
000003b0: 4ee9 01bf da59 09bf c702 89bf bc83 8d3e
000003c0: 66a8 babe e8d9 0d40 943a 93be 6cdc 16c0
000003d0: 6898 18bf 9f17 043f 44d3 543e 1f14 733f
000003e0: fbc6 463d a5b1 863e bdba 3abf e7bb 093d
000003f0: 0908 fdbd 729e 48bf 3084 85bd c49a 473f
