DL/A2/bbrbm2_task4.pth (torch_old, 964613 bytes, 3 tensors)

v_bias f4 [1, 600]
0	0xbea43096	-0.32068318
1	0xbe4af231	-0.19818951
2	0xbe7dc73c	-0.24783033
3	0xbe49d2bb	-0.19709294
4	0xbe294cdc	-0.16533226
5	0xbe8000e2	-0.25000674
6	0xbe7fa644	-0.24965769
7	0xbe63a41d	-0.22230573
8	0xbf2c0357	-0.67192596
9	0xbe49d3bb	-0.19709675
10	0xbea88324	-0.32912552
11	0xbeb8ba07	-0.36079428
12	0xbe493fa6	-0.19653186
13	0xbf625495	-0.8841031
14	0xbea625a8	-0.32450604
15	0xbe97f2b3	-0.29677352
16	0xbe296b5e	-0.16544864
17	0xbe22e57f	-0.15907858
18	0xbe47e7b6	-0.19521984
19	0xbe97d93d	-0.29657927
20	0xbe84ce1b	-0.25938496
21	0xbe66c96f	-0.22537778
22	0xbeab4258	-0.33449054
23	0xbe34f2cd	-0.17670746
24	0xbe46d4dc	-0.19417137
25	0xbe6c6bb4	-0.2308796
26	0xbe64f5c2	-0.22359374
27	0xbea588ab	-0.32330832
28	0xbe73f6a5	-0.23824556
29	0xbef333f3	-0.47500572
30	0xbf10276e	-0.56310165
31	0xbe462aaa	-0.19352213
32	0xbe594270	-0.2121675
33	0xbe429061	-0.19000389
34	0xbe53c4c3	-0.20680527
35	0xbe4a427b	-0.19751923
36	0xbe6503e6	-0.22364768
37	0xbe7e1556	-0.24812827
38	0xbe5178fc	-0.20456308
39	0xbe49076c	-0.19631737
40	0xbe576032	-0.2103279
41	0xbe6d0e65	-0.23150022
42	0xbe8bfc54	-0.2734095
43	0xbe9d0b76	-0.30672807
44	0xbe425441	-0.18977453
45	0xbe5d97c8	-0.21639931
46	0xbe8c02fc	-0.27346027
47	0xbe6da044	-0.23205668
48	0xbe4d9f77	-0.20080362
49	0xbe5adf4b	-0.21374242
50	0xbf34d34c	-0.70634913
51	0xbe89320c	-0.26795995
52	0xbe80481f	-0.25055024
53	0xbe81a04f	-0.25317618
54	0xbe5b788a	-0.21432701
55	0xbefbfef5	-0.49217954
56	0xbe910b92	-0.2832914
57	0xbe707c7e	-0.2348499
58	0xbe4aab46	-0.19791898
59	0xbe944459	-0.28958395
60	0xbe18a6e4	-0.14907414
61	0xbe609d47	-0.21934997
62	0xbe8c74e1	-0.27432922
63	0xbe6e67f8	-0.23281848
64	0xbe803916	-0.25043553
65	0xbe5db017	-0.21649204
66	0xbe8059de	-0.25068563
67	0xbf130b5f	-0.57439226
68	0xbe680f2c	-0.22662038
69	0xbf3002ca	-0.68754256
70	0xbe400176	-0.18750557
71	0xbe6ff490	-0.23433137
72	0xbe712c30	-0.23552012
73	0xbe4b39ed	-0.19846316
74	0xbe9826df	-0.29717156
75	0xbe64f431	-0.22358777
76	0xbe58bf6b	-0.2116677
77	0xbe4d3261	-0.2003875
78	0xbe4ddb60	-0.20103216
79	0xbe727387	-0.23676883
80	0xbe4781bf	-0.19483088
81	0xbf65e344	-0.89799905
82	0xbea47cad	-0.3212637
83	0xbe6c9a22	-0.23105672
84	0xbe0b3632	-0.13594893
85	0xbe67d916	-0.22641405
86	0xbed7c20c	-0.42140234
87	0xbe5dc515	-0.21657212
88	0xbe9c0357	-0.30471298
89	0xbe3a9bf5	-0.18223555
90	0xbe5fe6a3	-0.21865325
91	0xbe7352e5	-0.2376209
92	0xbeb0757c	-0.34464633
93	0xbe3a743c	-0.18208402
94	0xbe592df8	-0.21208942
95	0xbe7470e6	-0.23871192
96	0xbe798b75	-0.24369605
97	0xbe57e153	-0.21082048
98	0xbe88a815	-0.26690736
99	0xbea1db33	-0.31612548
100	0xbe3a3199	-0.18182983
101	0xbe6a46f2	-0.22878626
102	0xbe50ce65	-0.20391233
103	0xbf1ae316	-0.60502756
104	0xbe43cd2e	-0.19121239
105	0xbe5f6b81	-0.21818353
106	0xbe28c892	-0.16482762
107	0xbe6b78eb	-0.22995345
108	0xbe808373	-0.25100288
109	0xbe6ad6af	-0.22933458
110	0xbe2ef56c	-0.17085809
111	0xbe9a3b3e	-0.30123323
112	0xbf378889	-0.7169271
113	0xbe2932d7	-0.165233
114	0xbeec1166	-0.46107024
115	0xbe9bacb5	-0.30405203
116	0xbea1461c	-0.31498802
117	0xbf1069ff	-0.5641174
118	0xbe547d06	-0.20750818
119	0xbe8f6ff0	-0.2801509
120	0xbe3f5cb3	-0.18687706
121	0xbe83400d	-0.25634804
122	0xbe875d45	-0.26438347
123	0xbe6f45f7	-0.23366533
124	0xbe6f6638	-0.23378837
125	0xbe729d1e	-0.23692748
126	0xbe761b7d	-0.24033923
127	0xbe78654f	-0.24257396
128	0xbe55f48b	-0.20894067
129	0xbe31eb79	-0.17374982
130	0xbeaf07ed	-0.34185734
131	0xbe4c2ac5	-0.1993819
132	0xbe4c6256	-0.19959387
133	0xbe7135b5	-0.23555644
134	0xbe7fd012	-0.24981716
135	0xbe3e3bef	-0.1857755
136	0xbe7be13b	-0.24597637
137	0xbe7ac9f7	-0.24491106
138	0xbe4d3518	-0.20039785
139	0xbed13e01	-0.40867618
140	0xbe50949b	-0.20369188
141	0xbe871977	-0.26386616
142	0xbe4c5653	-0.19954805
143	0xbe7098fe	-0.23495862
144	0xbe16de3f	-0.14733218
145	0xbe4406ef	-0.1914327
146	0xbea083c7	-0.31350538
147	0xbe649097	-0.22320782
148	0xbe7b8131	-0.24561001
149	0xbe6de008	-0.23229992
150	0xbe62e96a	-0.22159353
151	0xbe7edf4c	-0.24889868
152	0xbe5f4de8	-0.21807063
153	0xbedbe5be	-0.42948717
154	0xbe585c4b	-0.21128957
155	0xbeb6162c	-0.3556379
156	0xbe8a02cd	-0.26955262
157	0xbe695424	-0.22786003
158	0xbe4c51b1	-0.19953038
159	0xbe8ebe84	-0.27879727
160	0xbe451125	-0.19244821
161	0xbe4a6533	-0.19765167
162	0xbea07008	-0.31335473
163	0xbe4e0ca6	-0.20122012
164	0xbeaefa9b	-0.34175572
165	0xbe45a8a5	-0.19302614
166	0xbe5bbdfc	-0.21459192
167	0xbe0f2834	-0.1398018
168	0xbe4d99fe	-0.20078275
169	0xbe42cf55	-0.19024403
170	0xbe879e08	-0.26487756
171	0xbe2a7b33	-0.1664856
172	0xbe32fd7d	-0.1747951
173	0xbe5047a8	-0.20339835
174	0xbe78daa6	-0.24302158
175	0xbe786602	-0.24257663
176	0xbe34b6e6	-0.17647895
177	0xbe80787f	-0.2509193
178	0xbe90e3ae	-0.28298706
179	0xbe4e6e2b	-0.20159213
180	0xbe8a85e9	-0.2705529
181	0xbe75e7ff	-0.2401428
182	0xbe4a73a3	-0.19770674
183	0xbe3eeb02	-0.18644336
184	0xbe7e4560	-0.24831152
185	0xbe625739	-0.22103585
186	0xbe55d636	-0.20882496
187	0xbe379732	-0.1792877
188	0xbe827e01	-0.25486758
189	0xbea828cb	-0.32843623
190	0xbf894e48	-1.0727015
191	0xbe3f0fa8	-0.18658316
192	0xbe4a6297	-0.19764172
193	0xbf2da664	-0.67832017
194	0xbeb34380	-0.35012436
195	0xbe83a5b4	-0.2571236
196	0xbeae6c6b	-0.3406709
197	0xbe79593b	-0.24350445
198	0xbe4621c4	-0.19348818
199	0xbe78f94f	-0.24313854
200	0xbf1fc847	-0.62414974
201	0xbead8b8a	-0.33895522
202	0xbe3ee65d	-0.18642564
203	0xbe69675e	-0.22793338
204	0xbf2ccbd2	-0.67498505
205	0xbea65a96	-0.32490987
206	0xbe7cee77	-0.24700342
207	0xbe9220ee	-0.28540748
208	0xbe68d79c	-0.22738498
209	0xbe5a50c4	-0.21319872
210	0xbe7a0707	-0.24416743
211	0xbe5f6775	-0.2181681
212	0xbe3a00ee	-0.18164417
213	0xbe845c93	-0.2585188
214	0xbe968eb1	-0.2940574
215	0xbe691eb9	-0.22765626
216	0xbe475a47	-0.19468032
217	0xbe6936ff	-0.22774886
218	0xbf511f92	-0.816888
219	0xbe7104e9	-0.2353703
220	0xbe6b01fb	-0.22949974
221	0xbe7623af	-0.2403705
222	0xbe6feb9e	-0.23429725
223	0xbf7f7f8b	-0.9980399
224	0xbe4ccdae	-0.20000336
225	0xbe2b70de	-0.16742274
226	0xbf721201	-0.9455872
227	0xbe750305	-0.23926933
228	0xbea4c5b5	-0.32182088
229	0xbe379e99	-0.17931594
230	0xbe807660	-0.25090313
231	0xbe6e37f8	-0.23263538
232	0xbe684f3f	-0.2268648
233	0xbe42705f	-0.18988179
234	0xbe4670ae	-0.19378921
235	0xbe63ec3c	-0.22258085
236	0xbe3af542	-0.18257621
237	0xbe70cb59	-0.23515071
238	0xbe81bd96	-0.25339955
239	0xbea04a3e	-0.31306642
240	0xbea98c95	-0.33115068
241	0xbedf7ede	-0.4365148
242	0xbe519c8c	-0.20469874
243	0xbef16ff8	-0.47155738
244	0xbeba4e6c	-0.36387956
245	0xbe9057ce	-0.2819199
246	0xbe71b80f	-0.23605369
247	0xbe816cad	-0.25278226
248	0xbe6a5a48	-0.22886002
249	0xbe48d820	-0.19613695
250	0xbe99c3cc	-0.30032194
251	0xbf1b0d41	-0.605671
252	0xbe62c359	-0.22144832
253	0xbe43c918	-0.1911968
254	0xbe6ba670	-0.2301271
255	0xbe408cb4	-0.18803674

h_bias f4 [1, 400]
0	0x3f6ee4d5	0.9331792
1	0x3f703f36	0.9384645
2	0x3e5488a5	0.20755251
3	0x3f2dd64b	0.6790511
4	0xbeb7fe56	-0.3593623
5	0x3f407c4c	0.7518966
6	0xbe37f12b	-0.17963092
7	0x3c360cf1	0.011111484
8	0xbe0a4d97	-0.1350616
9	0x3f6a3d05	0.9149936
10	0x3d4f0a10	0.050546706
11	0xbeacdf07	-0.33763906
12	0x3e7b64c1	0.24550153
13	0x3efe4a10	0.4966588
14	0x3f058de8	0.52169657
15	0x3f282789	0.65685326
16	0xbde70c07	-0.11281591
17	0x3f7423c8	0.953671
18	0x3f90b23d	1.1304394
19	0x3cf02cc5	0.029318223
20	0xbf24fc9a	-0.6444794
21	0x3f72ebb8	0.9489093
22	0x3f33a6a9	0.7017618
23	0x3f469544	0.7757151
24	0x3f85c232	1.0449889
25	0x3f523ba8	0.8212228
26	0x3f62351e	0.883623
27	0x3d9eaf61	0.077482946
28	0x3e325844	0.17416483
29	0x3f68b974	0.9090798
30	0x3ed8ab01	0.42317966
31	0x3f92a308	1.1456003
32	0xbed4d32d	-0.41567364
33	0x3e8c93cb	0.27456507
34	0x3f2303ad	0.63677484
35	0xbe62487c	-0.22097963
36	0x3f3f9755	0.7484029
37	0xbecbb792	-0.3978849
38	0x3f3b1154	0.73073316
39	0x3f26e4e7	0.6519303
40	0x3f791541	0.97298056
41	0x3f8a2b8f	1.0794543
42	0x3f4001f6	0.7500299
43	0x3faa8c44	1.3324056
44	0xbe8b1e59	-0.2717159
45	0x3f692da3	0.9108526
46	0x3f973ddb	1.1815752
47	0x3f9c53fe	1.2213132
48	0xbf2fdac9	-0.68693215
49	0xbed83329	-0.42226532
50	0x3f1c2fdb	0.6101052
51	0x3f5bed10	0.85908604
52	0xbe55437c	-0.20826524
53	0x3f0a8807	0.5411381
54	0x3e83e821	0.25763038
55	0x3f2f199b	0.68398446
56	0x3ead6ac7	0.33870527
57	0xbf48212d	-0.7817562
58	0x3e3bff3e	0.18359086
59	0xbd99e5cf	-0.07514536
60	0x3fa49eff	1.2861022
61	0x3ca90d2c	0.020636164
62	0xbe9e258a	-0.30888015
63	0xbd37aaa8	-0.044840485
64	0x3f7b4975	0.9815896
65	0x3f598385	0.8496631
66	0x3fa41fa0	1.2822151
67	0x3fa2369c	1.2672915
68	0x3f29cc19	0.66327053
69	0xbeda5913	-0.42646083
70	0x3e971b69	0.295131
71	0x3f49e0da	0.7885872
72	0xbeea1f30	-0.4572692
73	0xbdf921b5	-0.12164632
74	0xbea613c9	-0.3243697
75	0x3f748015	0.9550794
76	0x3f7b10f5	0.9807275
77	0x3f543cb4	0.82905126
78	0x3ca3956c	0.01996871
79	0x3f8defef	1.1088847
80	0x3f6d83b2	0.92779076
81	0x3f3eadf1	0.74484164
82	0xbe83e609	-0.2576144
83	0x3f68a1fd	0.90872175
84	0xbda84ed4	-0.0821816
85	0xbf185cf8	-0.5951686
86	0x3dd46d81	0.10372449
87	0x3f3fc0a0	0.749033
88	0x3f3b97a3	0.73278254
89	0xbe6d4aaf	-0.23173021
90	0x3d9c6445	0.076363124
91	0xbf1225d8	-0.57088995
92	0x3f46f2fc	0.77714515
93	0xbdd739d5	-0.105090775
94	0x3dd6cc12	0.10488142
95	0x3f6faf17	0.9362654
96	0x3f0bd834	0.54626775
97	0x3fc5299a	1.5403321
98	0xbee40e91	-0.44542363
99	0x3f897378	1.0738363
100	0xbee79abb	-0.45235237
101	0xbec22a7f	-0.37923047
102	0x3cd627d9	0.026142048
103	0x3f84f589	1.0387431
104	0xbe935296	-0.28773946
105	0xbf034afa	-0.5128628
106	0x3e906a42	0.28206068
107	0x3eb8e189	0.3610957
108	0x3f5fff06	0.8749851
109	0x3f5a5005	0.8527835
110	0x3f686b99	0.9078918
111	0x3e706534	0.23476106
112	0xbd8fd163	-0.07022359
113	0x3f4de541	0.8042794
114	0x3f6715de	0.9026774
115	0xbe9ce536	-0.30643624
116	0x3e7973b3	0.24360542
117	0xbed05959	-0.40693167
118	0x3f48efe5	0.7849105
119	0x3f4349d7	0.76284546
120	0x3f21c960	0.631979
121	0xbf0ad39b	-0.54229134
122	0x3ef9728f	0.48720214
123	0x3f3b3f98	0.7314391
124	0xbd88abc6	-0.06673388
125	0x3f6a66cf	0.91563123
126	0xbe8c8dc7	-0.27451918
127	0xbee75307	-0.45180532
128	0x3f4f73d6	0.81036127
129	0x3ec96f6a	0.39342815
130	0x3f67eefb	0.9059903
131	0x3f5b5a10	0.856843
132	0x3f4ca6f6	0.7994226
133	0x3ea96453	0.33084354
134	0x3f4fd40e	0.81182945
135	0xbd799d01	-0.060940746
136	0xbe345c18	-0.17613256
137	0x3f71af1f	0.9440784
138	0x3dde2d5d	0.10848496
139	0x3f5709ed	0.8399952
140	0x3e8a31a3	0.26990995
141	0xbc2dcb8e	-0.010607613
142	0x3ee3ee65	0.44517818
143	0xbd2d255b	-0.042271953
144	0x3ebe4af0	0.37166548
145	0x3f209a3f	0.6273536
146	0x3f91b66a	1.1383793
147	0x3fa685a9	1.300954
148	0x3f491c81	0.7855912
149	0xbed1fe08	-0.41014123
150	0x3dd2e3ee	0.102973804
151	0x3f65fb81	0.8983689
152	0x3f6a6871	0.91565615
153	0x3c942ae2	0.018086854
154	0xbe89e84c	-0.2693504
155	0xbe51728c	-0.20453852
156	0xbdf70812	-0.12062086
157	0x3f1be910	0.609025
158	0x3e40eac6	0.18839559
159	0xbe8a3f03	-0.270012
160	0x3f2d80a9	0.67774445
161	0xbeebcadf	-0.46053216
162	0x3fafb668	1.3727541
163	0x3f873be9	1.0565158
164	0xbdbe3698	-0.09287757
165	0xbef3b754	-0.47600806
166	0xbe9ba343	-0.30397996
167	0x3f899fa8	1.0751848
168	0x3f558548	0.83406496
169	0xbeff9f12	-0.4992605
170	0xbf281d7b	-0.65669984
171	0x3f5335ff	0.82504267
172	0xbe0132bf	-0.12617014
173	0x3f5e45a7	0.8682503
174	0x3f483787	0.7820973
175	0xbeeb4c23	-0.45956525
176	0x3f9ff760	1.2497368
177	0x3f5f928d	0.87332994
178	0x3b9633df	0.0045838202
179	0x3f87a9e8	1.0598726
180	0x3e893481	0.2679787
181	0xbe9cf499	-0.30655363
182	0xbdf793b1	-0.12088717
183	0xbe172e3f	-0.14763735
184	0x3f820dfd	1.0160519
185	0x3f55738c	0.83379436
186	0x3df7b7fb	0.12095638
187	0x3f2b3bed	0.66888314
188	0xbea11e23	-0.31468305
189	0xbe8f82dc	-0.28029525
190	0x3f6e3812	0.93054307
191	0x3af6dd3a	0.0018834241
192	0xbece5db2	-0.4030586
193	0xbe885db9	-0.26634005
194	0x3f57c381	0.8428269
195	0x3f6ad029	0.9172388
196	0x3e99bb18	0.30025554
197	0x3f52f0e6	0.8239883
198	0xbe77e1b2	-0.2420719
199	0x3e435a76	0.19077477
200	0x3ea2e636	0.31816262
201	0x3f08482c	0.53235126
202	0xbe3dd152	-0.1853688
203	0x3eff1d87	0.49827215
204	0x3eb48e4a	0.35264808
205	0x3f22831b	0.634813
206	0x3f40c483	0.75299853
207	0x3d8b197b	0.067919694
208	0x3ec9eff9	0.39440897
209	0x3f3b60af	0.731944
210	0xbe0eb805	-0.13937385
211	0xbeaf26ca	-0.3420928
212	0x3f5feb1b	0.8746812
213	0x3f409b64	0.7523711
214	0x3f5a20c4	0.85206246
215	0xbd458adb	-0.048228126
216	0x3f237022	0.63842976
217	0xbed3de41	-0.41380504
218	0x3f83840d	1.0274674
219	0x3f7d2e65	0.9889892
220	0xbe33c37a	-0.17555037
221	0x3ea977e9	0.33099297
222	0x3f86fb67	1.0545472
223	0xbea65e8d	-0.32494012
224	0x3e9b61a9	0.30347946
225	0xbedf9022	-0.43664652
226	0x3f837835	1.0271059
227	0xbec3e658	-0.38261676
228	0x3f557969	0.8338838
229	0x3f6e1cc1	0.93012625
230	0xbeda6207	-0.42652914
231	0x3f6cf57c	0.9256208
232	0x3f915a7a	1.1355736
233	0x3f3de49e	0.7417697
234	0x3f642756	0.8912252
235	0xbe229afb	-0.15879433
236	0x3f5dbb16	0.86613595
237	0x3f418b2c	0.75602984
238	0xbe217e96	-0.15770945
239	0xbf226be1	-0.6344586
240	0x3e899110	0.26868486
241	0xbe33e65a	-0.17568341
242	0x3eaa3929	0.33246735
243	0x3f1599b3	0.5843765
244	0x3f8b69a0	1.0891609
245	0x3f65963c	0.89682364
246	0x3f9948ca	1.1975338
247	0x3f6f0f51	0.93382746
248	0x3f728e3d	0.9474829
249	0xbf0dd627	-0.55404896
250	0xbed0b44b	-0.40762553
251	0xbe9b3cda	-0.30319864
252	0xbc23f0d7	-0.010006151
253	0x3f4e856a	0.80672324
254	0xbd8d734d	-0.069067575
255	0xbe859f38	-0.26098037

weights f4 [400, 600]
0	0xbf3e44db	-0.74323815
1	0xbfb321ff	-1.399475
2	0xbf1ee457	-0.6206717
3	0xbe40392a	-0.18771806
4	0xbf6a1fad	-0.91454583
5	0x3e190075	0.1494158
6	0x3de64f32	0.11245574
7	0xbf091885	-0.5355304
8	0x3da41c37	0.08013194
9	0xbf15bade	-0.5848826
10	0x3f8c8695	1.0978571
11	0x3fbfcca5	1.4984328
12	0xbf027476	-0.50958955
13	0xbf467c8d	-0.775338
14	0xbe754bd8	-0.23954713
15	0xbfbc74f2	-1.4723189
16	0xbede1e66	-0.43382567
17	0xbf067e97	-0.5253691
18	0xbf34890c	-0.70521617
19	0xc010c934	-2.2622805
20	0xbf50a190	-0.81496525
21	0xbef7438c	-0.48293722
22	0xc01fa95b	-2.4947116
23	0x3f832aba	1.0247414
24	0x400d5e8f	2.2088964
25	0xbe971eeb	-0.29515776
26	0xc02feda7	-2.7488801
27	0xbf3b8b71	-0.73259646
28	0xbd5a00fa	-0.053223588
29	0xbeb3eff7	-0.35144016
30	0x3f4faa62	0.8111936
31	0x3fa1db7a	1.2645104
32	0xbf128562	-0.57234776
33	0xbf7f0983	-0.9962389
34	0xbfd3aa67	-1.6536378
35	0xbf30604e	-0.6889695
36	0x3ff9a851	1.9504491
37	0xbecccfb1	-0.40002206
38	0xbef7d4eb	-0.4840463
39	0xbf448ade	-0.76774395
40	0xbfa33faf	-1.275381
41	0xbf274d1f	-0.6535205
42	0xbda2e094	-0.07952991
43	0xbfe8fb65	-1.820172
44	0xbf1954b8	-0.59894896
45	0x3e0f34ba	0.13984957
46	0xbfdbe87e	-1.7180326
47	0x3ea7fcf6	0.3281018
48	0x3e5633df	0.20918225
49	0xbf4c1ac6	-0.79728353
50	0x3f461f12	0.7739116
51	0x3f2a3708	0.6649022
52	0xbfa7132b	-1.3052725
53	0xbe56af73	-0.20965366
54	0xbf2c83e2	-0.6738874
55	0x3e68c6f3	0.22732143
56	0xbf096851	-0.536748
57	0xbec3f0e7	-0.3826973
58	0x3ead2636	0.33818215
59	0x3e8ba1b8	0.2727182
60	0xbf8c55a9	-1.0963641
61	0xbe2b1b8d	-0.16709729
62	0xbfa1a5bb	-1.2628702
63	0x3f623183	0.883568
64	0xbea6a9d9	-0.32551458
65	0xbee4422f	-0.44581744
66	0xc0131a9f	-2.2984998
67	0x3e93724f	0.28798148
68	0x3f5479be	0.82998264
69	0x3f79d495	0.9759
70	0x3ca51f68	0.020156577
71	0xbf1d65d1	-0.61483485
72	0xbfbc62a3	-1.4717602
73	0x3f3197a0	0.69371986
74	0xbfaf749a	-1.3707459
75	0x3eea6df0	0.45787
76	0x3f87338b	1.0562605
77	0xbeb0ad15	-0.3450705
78	0xbe98961a	-0.29802018
79	0xbebb6c8a	-0.36606246
80	0x3c886b09	0.0166526
81	0x4003b372	2.0578275
82	0xbeb02aa4	-0.34407532
83	0x3f0e70b8	0.55640745
84	0xbf3f73bf	-0.7478599
85	0xbfa483b7	-1.2852696
86	0x3f4e38f2	0.8055564
87	0xbf546f3c	-0.8298223
88	0x3f8adc50	1.0848484
89	0xbe018a11	-0.12650324
90	0x3f8037c8	1.0017023
91	0xbeca0b58	-0.3946178
92	0x3ee10706	0.4395067
93	0xbf0a59ef	-0.5404348
94	0xbda38bad	-0.079856254
95	0xbfa65232	-1.2993834
96	0xbfacee8f	-1.3510302
97	0xc0239e8c	-2.556552
98	0x3fc08ddb	1.5043291
99	0xbf87652f	-1.0577754
100	0xbf6c9a6a	-0.9242312
101	0x3f2422d4	0.64115644
102	0x3ff58b47	1.9183129
103	0x3f43ace1	0.7643567
104	0xbf79c1b7	-0.9756121
105	0xbf21897b	-0.63100404
106	0x3e1ab8dc	0.15109581
107	0x3e67a926	0.22623119
108	0x3eb2cdc6	0.34922618
109	0xbe667c27	-0.22508298
110	0xbf354bd3	-0.70818824
111	0x3fdaa041	1.7080156
112	0xbda98e08	-0.082790434
113	0xbfbc051d	-1.468906
114	0xbf479bee	-0.77972305
115	0xbfc1b2c1	-1.5132676
116	0xbf52c9e8	-0.82339334
117	0xbed2ca0c	-0.41169775
118	0xbf07a78d	-0.5299004
119	0xbf68a3cf	-0.9087495
120	0xbd4f2712	-0.05057437
121	0xbefb31cb	-0.49061427
122	0xbf883f98	-1.0644407
123	0x3f8d0519	1.1017181
124	0xbf62f638	-0.8865695
125	0xbf39bd7c	-0.72554755
126	0xbea161f0	-0.31520033
127	0xbf4fb6da	-0.81138384
128	0x3f379ca1	0.7172337
129	0x3f1bc464	0.60846543
130	0xbef360cb	-0.47534785
131	0xbe8ef7af	-0.27923343
132	0x3e4e2fee	0.20135471
133	0xbf03fe6f	-0.5156011
134	0x3ec2ec52	0.38070923
135	0x3fa8a0b2	1.317404
136	0xbf995f13	-1.1982139
137	0xbe533fde	-0.20629832
138	0xbf6b9d30	-0.92036724
139	0x3f7421f5	0.95364314
140	0xbe6bc4f1	-0.23024346
141	0xbfc752c7	-1.5572137
142	0xbf734671	-0.9502936
143	0x3b922a57	0.0044606137
144	0xbfc71672	-1.5553725
145	0xbf2f7aa2	-0.685465
146	0xbf4af780	-0.79283905
147	0xbed28df9	-0.41123942
148	0x3ed2eb98	0.4119537
149	0xbebe3653	-0.3715082
150	0x3b63c52e	0.003475498
151	0xbe1f656e	-0.15566036
152	0xbf875db7	-1.0575475
153	0xbfed0df1	-1.851988
154	0xbf99ac7f	-1.2005767
155	0xbe017ea8	-0.12645972
156	0xbee238c1	-0.44183925
157	0xbfa9a82e	-1.3254449
158	0x3f2da167	0.67824405
159	0xbf19c43d	-0.6006506
160	0xbfc47fe5	-1.535153
161	0xbf84e606	-1.0382698
162	0x3ec171db	0.37782177
163	0xc018a897	-2.38529
164	0xbf0dbbc6	-0.55364645
165	0x3d31c09e	0.043396585
166	0xbe77192c	-0.24130696
167	0xbebb46ec	-0.36577547
168	0xbf74d5d0	-0.9563875
169	0x3fbb03a5	1.4610487
170	0xbff93064	-1.9467893
171	0xbdcea4f5	-0.10090057
172	0xbf55435d	-0.83305913
173	0xbf523200	-0.82107544
174	0xbf8854d7	-1.0650891
175	0xbf448e77	-0.76779884
176	0xbf66220d	-0.8989571
177	0xbe86adf4	-0.2630459
178	0xbfeb7e41	-1.8397905
179	0x3f3e3d57	0.7431235
180	0xbe384456	-0.17994818
181	0xbf30caef	-0.6905965
182	0x3f411ea4	0.7543738
183	0xbfdff049	-1.7495204
184	0xbabbf4ee	-0.0014339963
185	0x3edceb27	0.43148157
186	0xbfd76915	-1.6828943
187	0x3bbb7be9	0.0057215584
188	0xbf671bc9	-0.9027677
189	0x3e38130d	0.17976017
190	0xbf91e616	-1.1398342
191	0x3f314740	0.69249344
192	0x3f828d2f	1.0199336
193	0x3e59fd9d	0.21288152
194	0x3c16fc8a	0.009215483
195	0x3f859a04	1.0437627
196	0x3e8c5e51	0.27415708
197	0xbfb65637	-1.4245061
198	0x3ec6c397	0.38821098
199	0xbfc44574	-1.5333695
200	0xbe056f52	-0.13030747
201	0xbfe6839f	-1.8008918
202	0x3d115dae	0.03548973
203	0x3edf1e02	0.43577582
204	0x400deee0	2.2177048
205	0x3f92797b	1.1443323
206	0xbf82be36	-1.0214298
207	0xbdfb1f89	-0.12261874
208	0xbf37c5e2	-0.7178632
209	0xbf9ff927	-1.249791
210	0x3ec4b0ff	0.38416287
211	0xbf6a3ccb	-0.9149901
212	0x3d9ed676	0.07755749
213	0xbfb9c551	-1.4513341
214	0x3e3d91db	0.1851267
215	0xbee8ef50	-0.4549508
216	0x3f817710	1.011446
217	0xbf85ea5b	-1.0462145
218	0x3f8168aa	1.0110066
219	0x3f81f4e5	1.0152861
220	0x3eb0e7ae	0.34551758
221	0x3df535b2	0.11973132
222	0xbef855dc	-0.48503006
223	0x3ea8821f	0.32911775
224	0xbf83feca	-1.031213
225	0xc00cb501	-2.1985476
226	0xbf749244	-0.95535684
227	0x3e5c515f	0.21515416
228	0xc02c599b	-2.692969
229	0xbfeaa5aa	-1.8331807
230	0x3e87aa5b	0.26497158
231	0x3dc437b0	0.09580934
232	0xbeb219f7	-0.34785435
233	0xbf1b26ec	-0.60606265
234	0x3fab9b13	1.34067
235	0xbfb148f7	-1.3850392
236	0xbd097073	-0.033554506
237	0xbf182899	-0.5943695
238	0xbf4f1f35	-0.80906993
239	0x3f07875b	0.5294091
240	0xbf958fd5	-1.1684519
241	0x3f445630	0.7669401
242	0xbf02461b	-0.5088822
243	0x3f682368	0.90679026
244	0xbf085653	-0.5325672
245	0x3e09ce69	0.13457645
246	0x3d372c37	0.0447199
247	0x3ff20808	1.8908701
248	0xbf07b528	-0.530108
249	0x3f918faf	1.1371974
250	0xbf72c59b	-0.9483277
251	0x3f58ff87	0.84764904
252	0x3d42408b	0.047424834
253	0x3f80c136	1.0058963
254	0x3f8a9377	1.0826253
255	0xc006b02e	-2.1045032
