DL/A2/bbrbm3_task4.pth (torch_old, 483413 bytes, 3 tensors)

v_bias f4 [1, 400]
00000000: 066e 12bf 2da5 32bf 0f72 5fbf 48d9 89bf
00000010: b027 98be b5d2 88bf 2819 60be d34d febe
00000020: c9b9 e6be 1f2a 01c0 65b5 15bf 5476 fbbe
00000030: 2b7e 95be 2b91 89bf c9a3 dfbf 8f63 60bf
00000040: a3ac 2abf 0d64 debf bf34 b7bf 8e4c f6be
00000050: 04bb 32be e3a4 9abf ac8f 89bf f632 b8bf
00000060: 05fb 8cbf 314b a9bf 4bec dcbf 636b 01bf
00000070: f300 60be ee87 a8bf 5526 f5be e6f8 a6bf
00000080: dd6b 5abe ba6e bebe 4acb 30bf a7e3 80be
00000090: 7a21 84bf 0cf7 6fbe 0438 88bf 2c3f 72bf
000000a0: 249a a8bf 9bf6 26c0 a80f acbf b09a 0bc0
000000b0: bc8f 15bf 40f4 babf 8d57 6bbf 3cc0 9bbf
000000c0: a392 cabe fd26 04bf 1a07 bcbf 249c 14bf
000000d0: 1de3 ddbe 505e 8abf 3b7e 5ebf 355b acbf
000000e0: 5f48 febe ad03 2cbe 8df9 0cbf 2252 17bf
000000f0: e88e 3fbf 0852 f4be 41ec 03bf c5c6 0dbf
00000100: c9e9 30bf 64e3 5dbf ebc4 67bf 9b6b 6cbf
00000110: 7c25 83bf ddfa b1be 0f83 12bf cefd 90bf
00000120: 5180 b3be 21e8 e0be 1e4f 91be facc b3bf
00000130: 36a7 b2bf 1407 b6bf b912 aabe 55ad 9abf
00000140: 50b5 52bf bdaf 41bf ef4b 19bf 989d efbe
00000150: 79dc c8be 78d7 45be 8ff7 e7be 1366 2dbf
00000160: 8567 8fbf 013f 4cbe 7ff4 3ebf 0424 f0bd
00000170: e1fa 89bf ca41 c4be 98ca bebe b7c5 5fbf
00000180: f516 3fbf 14d3 87bf e2d7 83be 6ea3 9bbf
00000190: 18c1 a4be b109 f0be 168a 7dbf 585e c6bf
000001a0: 69c1 10bf a760 a7be 788d 22bf 9063 64bf
000001b0: 6b3b 37bf 7116 eebf dd9c e9bf e53d 0cbf
000001c0: 00c7 bcbe cd1d 7ebf 1d6e b1bf 9032 f8be
000001d0: 512a 66bf e99d b0be 44a9 24bf e810 38bf
000001e0: 2347 94bf 3389 15bf 111d 85bf 71af 35bf
000001f0: 1c5b 1dbf bedd 13c0 3716 4dbe 6085 48be
00000200: 0c68 b0bf 299f 98bf b1a9 05c0 cd6f 9dbf
00000210: dfce 1dbf a6e5 36bf 4a1d 91bf 36ae 91be
00000220: 39f6 e3be 0312 9bbf 122a a0be 9db9 adbf
00000230: 714f 6fbf 405b b3be 3145 8ebf 25b9 18bf
00000240: 82d5 34bf a124 a9bf c520 e0bf 69e4 bcbf
00000250: 8673 72bf 15f0 d4be 8a1c 0ebf fa22 01c0
00000260: 10ce 95bf 2a14 febe 537c 35bf 3acb d7be
00000270: c0fb 47be 6c51 86bf c22f 6ebf 9210 86be
00000280: 3362 60bf 9d15 b2be 871d d5bf 4bd1 81bf
00000290: 6ebc 08bf 2810 b1be 33bc 00be 8fab 69bf
000002a0: a0e0 6ebf fd9e d9be c848 aabe 26fc 3bbf
000002b0: 2f2f f9be 4809 75bf 069e 8ebf 3e6a c5be
000002c0: 8ff7 4ebf 3a44 c3bf 1708 0abf a104 92bf
000002d0: 811d 10bf cd46 72be cfbe 05bf 7164 a3be
000002e0: 6b22 a2bf 33a0 46bf 772a a3be 13c3 00bf
000002f0: 3356 a63d aa92 00be bc1c b9bf ad70 06bf
00000300: ab04 d1be e08d 0ebf cc70 50bf 0597 94bf
00000310: aa35 2ebf 75e8 3dbf 6c67 1fbe b5bc 28bf
00000320: e896 05bf a9b9 adbf 9452 11bf d33b cdbe
00000330: f8f0 94bf 119d a8bf e396 82bf e65f 2cbf
00000340: ecff 63bf be6b 4fbf 45c1 66be c969 65be
00000350: af8c c1bf 21a4 b3bf d376 83bf df55 d4be
00000360: b072 83bf bd09 a1bc 931c 4fbf 9c80 babf
00000370: eecf 96be 2f00 03bf 053c 33bf 1da5 ebbd
00000380: ab0c 90bf 61c0 a3be 7ebf 8bbf 483a 12bf
00000390: 885e cabf f1d6 41bf 6a08 8abe 1e3a 51bf
000003a0: 78e2 f3bf 5a2f 97bf 05a3 aabf 97d0 b8be
000003b0: 49e6 a7bf 8365 9fbf 27f7 e9be 4b39 71be
000003c0: f0e8 6fbf 791c f5be 1812 4dbf 38ab 7dbf
000003d0: 47b3 afbf 3262 48bf f7a2 59bf afed 8cbf
000003e0: a10b 81bf 847c 00bf b92b b8be f48f 0abf
000003f0: 83e3 20bf e058 bfbf c2da d3bd 5d3f fabe
-0.5719913 -0.6978329 -0.87283415 -1.0769434 -0.2971778 -1.0689303 -0.21884596 -0.4966875
-0.45063618 -2.0181959 -0.5847991 -0.49113715 -0.2919782 -1.0747427 -1.7471858 -0.87651914
-0.6666967 -1.7374283 -1.4312972 -0.48105282 -0.17454153 -1.208157 -1.074697 -1.4390552
-1.1014105 -1.3226072 -1.7259611 -0.50554484 -0.21875362 -1.3166482 -0.47880808 -1.3044708
-0.21330209 -0.37193853 -0.69060194 -0.25173685 -1.0322716 -0.23434085 -1.0642095 -0.9462764
-1.317204 -2.6088016 -1.3442278 -2.1813164 -0.58422446 -1.4605789 -0.91930467 -1.216804
-0.39565 -0.5162199 -1.4689667 -0.5805075 -0.43337336 -1.0810032 -0.8691136 -1.3465334
-0.4966459 -0.16798277 -0.55068284 -0.591097 -0.7482743 -0.47718835 -0.5153237 -0.55381423
-0.6910673 -0.86675096 -0.9053485 -0.9235169 -1.0245814 -0.34761706 -0.5723123 -1.1327455
-0.35058835 -0.439271 -0.28380674 -1.4046929 -1.3957279 -1.422091 -0.3321741 -1.2084147
-0.8230791 -0.7565878 -0.5988149 -0.46799922 -0.39230707 -0.19320476 -0.4530606 -0.6773388
-1.1203467 -0.19945909 -0.7459182 -0.117256194 -1.0779687 -0.38331443 -0.37263942 -0.87411064
-0.74644405 -1.0611291 -0.25750643 -1.215925 -0.3217857 -0.46882394 -0.9903883 -1.5497541
-0.5654512 -0.32690927 -0.63497114 -0.8921442 -0.7157504 -1.8600599 -1.8250996 -0.54781944
-0.36870575 -0.9926422 -1.3861729 -0.48476076 -0.8990832 -0.34495476 -0.6432078 -0.71900797
-1.1584209 -0.58412474 -1.0399495 -0.7097083 -0.61467147 -2.310409 -0.20028006 -0.19582129
-1.3781753 -1.1923572 -2.0884821 -1.2299744 -0.61643785 -0.71444166 -1.1337063 -0.28453225
-0.4452379 -1.2114872 -0.31282097 -1.357227 -0.9348059 -0.35030556 -1.1114866 -0.5965751
-0.7063829 -1.3214303 -1.751 -1.4757205 -0.94707525 -0.41589418 -0.555123 -2.0177598
-1.170351 -0.4962476 -0.7089283 -0.42147237 -0.19529629 -1.0493598 -0.9304162 -0.26184517
-0.8764984 -0.34782115 -1.6649636 -1.0141996 -0.5341252 -0.3458264 -0.12571792 -0.912774
-0.933115 -0.4250411 -0.33258653 -0.73431623 -0.4866881 -0.9571729 -1.1141975 -0.3855762
-0.80846494 -1.5255196 -0.53918594 -1.1407663 -0.5629502 -0.23659821 -0.52244276 -0.31912568
-1.2666754 -0.77588195 -0.31868336 -0.5029766 0.0812191 -0.12555948 -1.4461894 -0.5251568
-0.40823874 -0.55685234 -0.81422114 -1.1608588 -0.68050635 -0.74182826 -0.15566796 -0.65912944
-0.5218339 -1.3572284 -0.5676663 -0.40084705 -1.1636038 -1.3172933 -1.0202297 -0.6733383
-0.8906238 -0.81023777 -0.22534664 -0.22403635 -1.5121058 -1.4034463 -1.0270637 -0.41471764
-1.0269375 -0.019657964 -0.80902976 -1.4570498 -0.29455513 -0.51172155 -0.7001346 -0.11506102
-1.1253866 -0.3198271 -1.0917814 -0.5712018 -1.5810099 -0.757186 -0.26959544 -0.81729305
-1.9053488 -1.1811326 -1.3331 -0.3609664 -1.3117152 -1.2452854 -0.45696375 -0.23557012
-0.9371481 -0.47873285 -0.80105734 -0.99089384 -1.3726586 -0.78274834 -0.8501429 -1.1010035
-1.0081674 -0.50189996 -0.35970858 -0.54125905 -0.62847155 -1.4948997 -0.10344459 -0.48876467

h_bias f4 [1, 300]
00000000: 57a2 0c3d d8d9 0d40 3213 94be aaf6 1fbe
00000010: eb23 5e40 f70d 08bf a627 90be 6ab2 edbe
00000020: 2b27 04be 3bbd f7be 03b5 003e 37ed 70be
00000030: 01f5 00bf 700f 43be d3bd ebbe bfb2 c1be
00000040: c8e7 c4be 6cf4 d7bd 26ed cb3c db53 0bbf
00000050: 8110 fcbe 8818 0b3f c8f2 f13f ee5a 80be
00000060: 2a43 72bd b45c cebe 95d7 1abf af8c a4be
00000070: a184 ecbe 4633 27bf 8742 5e3f 85fd babe
00000080: 4681 f2be f365 4f40 0391 babe 9187 043c
00000090: eeff 2f40 4962 b4be 3962 6d40 3d7e 4a3d
000000a0: 054b aabc c6af 19bf 9c91 e4be 9d1d a5be
000000b0: 1cad bfbe b0e9 93be a424 a5be 3193 5fbe
000000c0: 695c e0be 6587 2abf f305 7abe c18a 05be
000000d0: c922 a8bd 1434 6440 83d0 babe 1276 bbbe
000000e0: 9d5d abbe 727f ebbe d1cd 4b3f ac44 94be
000000f0: 34e7 aabe 62c1 b0be efa6 3c40 3e3f abbe
00000100: 3c78 41be def0 3140 9cad a7be 260a 88be
00000110: b684 83be 89b9 a1be 2b95 e6be 8bef b5be
00000120: f5ec c13e 849b a6be 876a 23bf 8718 4a40
00000130: 43a1 dbbe f36d d8be 4660 1bbe b166 c43e
00000140: e680 6840 0bdc 5f40 a2aa 453f c852 5abe
00000150: f975 3840 a3a7 bebe efda aebe 9c35 fcbe
00000160: deae 0440 2e0d bc3f 9f1c 533e 04a9 de3c
00000170: 8761 3cbe d09a f6be 34d7 4b3e 6054 123e
00000180: 2653 d4be a1be 79be e080 2abe 4037 0fbf
00000190: 9ae2 2ebf 9e2c bebe 9072 87be 7991 eabe
000001a0: c807 86be c084 4e3e b691 743f 2c3f e5be
000001b0: 6d52 d43f 991a bdbe 4ac5 a5be 0dc6 c8be
000001c0: c774 d9be 50b6 ed3f 52fe d5be fed9 f43f
000001d0: 5f62 91be a0d7 bcbe b10a 0ebf 01f3 d8be
000001e0: a9d6 69be b974 79be 3131 71be 969c 0940
000001f0: 642f 6640 8c08 f6be 21dd e9be 9dab edbe
00000200: ac74 13bf b2ce 943e d547 06be 463c 01bf
00000210: b24a eabe 2233 08bf 8e7e 99be d140 0f40
00000220: a40f 5740 20c2 02bf 6c39 adbe 0a02 bbbe
00000230: cd5d 13bf 8f73 1cbf 20b8 19bf 18c9 16bf
00000240: 7756 6fbe 53ae adbd 8b10 dcbe 57eb 9bbe
00000250: 768c c4be 8223 0bbf 38eb 16bf 58b6 05bf
00000260: 9696 9cbe 0d0c 683e f38b 18bf 8d38 1dbf
00000270: 8bf0 623e c1dc 71be f696 b7be 832e ef3e
00000280: 45b9 a3be 92fa 3740 8ec6 0bbe 2463 f5be
00000290: 4682 0bbe b23c 083f 8f4b 3e40 69c6 dabd
000002a0: 25b6 1cbf 2cb2 ccbc ee64 95be 4cdf 09bf
000002b0: ff6e 1540 3038 08be 4e4e 5740 bfc6 1bbf
000002c0: 4e9d b3be 6750 3740 ba08 0abf 5836 f63e
000002d0: 31a9 d9be 8d63 7bbd 02fd 1440 2160 b6be
000002e0: be6a aebe d440 dfbe 25f7 fabe 0467 90be
000002f0: 6bd1 9bbe 3c8a 35be 58e7 f1be 87fc 80be
00000300: ccb5 90be d7a0 92be 5895 5240 7cb1 60be
00000310: a115 15bf bea0 25bf 2599 6640 d921 cbbe
00000320: b352 a0be 55cf edbe e8c3 a43f f1bc 2d40
00000330: a7cc d3be 3f4e 81be 75b8 6140 a300 11bf
00000340: e079 50be 1e9a 31bf bc92 0bbf 8f6f 05bf
00000350: 8e2e 0dbf 0310 073f 8b30 83be 818b f9be
00000360: 58ee 00bf 233f 1bbf 3856 ddbe 3fdd d8be
00000370: 3e37 d4be 493f b2be 0ad3 c2be 281b 5240
00000380: 6702 f3be 8a02 8dbe bbaa 61be f39f 0f40
00000390: 8136 b8be e8b5 f9be 795a 47bf 37c9 dabe
000003a0: c2f1 93be 31f2 8dbe a152 08be 132f de3f
000003b0: b361 12bf ad29 c2be ca66 b8be 96f5 16bf
000003c0: 2341 08bf e11d 0dbf 9b6a 7cbe 3b52 d9be
000003d0: 0881 a0be 40ad a5be 84d4 6bbe 59ae e9be
000003e0: 7503 1bbf a979 24bf 145f 95be b2dc c5be
000003f0: 5018 0fbf 31f1 0a40 d1bd 13bf 898c fabe
0.034334507 2.2164211 -0.28920895 -0.15621439 3.4709423 -0.5314631 -0.2815525 -0.46425182
-0.12905566 -0.4838656 0.1256905 -0.2352799 -0.50373846 -0.19048858 -0.46043262 -0.37831685
-0.38458085 -0.10544667 0.024893355 -0.5442483 -0.4923134 0.54334307 1.8902216 -0.25069374
-0.059146084 -0.40305102 -0.604852 -0.32138583 -0.46194938 -0.6531261 0.8682026 -0.36521545
-0.47364253 3.2405975 -0.3643876 0.008088962 2.7499957 -0.35231236 3.70912 0.049436796
-0.020787725 -0.60033834 -0.4464234 -0.32249156 -0.3743676 -0.28889227 -0.32254517 -0.21833493
-0.43820503 -0.66612846 -0.24416332 -0.13041212 -0.0820976 3.5656786 -0.36487207 -0.36613518
-0.3346986 -0.4599567 0.79610926 -0.28958642 -0.3337952 -0.3452254 2.9476888 -0.33446687
-0.18893522 2.7803264 -0.3274964 -0.26570243 -0.25687188 -0.31586865 -0.4503568 -0.3553432
0.37876096 -0.32540524 -0.6383442 3.157747 -0.4289647 -0.42271385 -0.15173444 0.38359597
3.6328673 3.4978054 0.7721349 -0.21320641 2.8822005 -0.37237272 -0.34151408 -0.4925965
2.073173 1.4691522 0.20616387 0.027180202 -0.18396579 -0.48164988 0.19906312 0.14289999
-0.41469687 -0.24389125 -0.16650724 -0.5594368 -0.68314517 -0.37143415 -0.26454592 -0.45814112
-0.26177812 0.20167828 0.9553484 -0.4477476 1.6587654 -0.36934355 -0.32377082 -0.392136
-0.42471907 1.8571262 -0.41795594 1.9129026 -0.28395364 -0.3688326 -0.55485064 -0.42372897
-0.22835793 -0.24360932 -0.23553921 2.1501822 3.5966425 -0.48053396 -0.4567652 -0.46419993
-0.575999 0.29063946 -0.13113339 -0.50482595 -0.45760113 -0.5320302 -0.29979366 2.238331
3.3603296 -0.5107746 -0.33832872 -0.36524993 -0.57565004 -0.6111383 -0.6004658 -0.58900595
-0.23372827 -0.08480515 -0.4298137 -0.30452988 -0.38388413 -0.54351056 -0.58952665 -0.5223136
-0.30583638 0.22660847 -0.59588546 -0.61414415 0.22162072 -0.23619367 -0.35857362 0.46715173
-0.31977287 2.8746686 -0.13649961 -0.479272 -0.13623914 0.53217614 2.9733617 -0.10682375
-0.6121543 -0.024987303 -0.29178566 -0.5385635 2.3348997 -0.13302684 3.3641543 -0.6085014
-0.3508095 2.8642824 -0.53919566 0.48088336 -0.42511895 -0.061374236 2.3279424 -0.35620216
-0.34065813 -0.43604147 -0.4901668 -0.28203595 -0.3043321 -0.17728513 -0.47246814 -0.25192663
-0.282637 -0.28638336 3.2903652 -0.21942705 -0.5823613 -0.646984 3.6030972 -0.3967426
-0.31313094 -0.46447244 1.2872286 2.714657 -0.41367075 -0.2525501 3.5268834 -0.56641597
-0.20358992 -0.6937579 -0.54520774 -0.5212335 -0.5514916 0.52758807 -0.25622973 -0.48739246
-0.50363684 -0.60643214 -0.43229842 -0.42356297 -0.41448396 -0.34813908 -0.38051635 3.2829075
-0.4746277 -0.27541 -0.22037785 2.2441375 -0.35979083 -0.48771596 -0.77872425 -0.4273164
-0.28895384 -0.2772384 -0.1331277 1.7358116 -0.5718033 -0.3792242 -0.36015922 -0.58968484
-0.5322439 -0.55123717 -0.24650042 -0.4244555 -0.31348443 -0.32358742 -0.23030287 -0.4564083
-0.6055215 -0.6424814 -0.291741 -0.3864494 -0.5589647 2.1709712 -0.5771151 -0.48935345

weights f4 [300, 400]
00000000: ae0f 9ebf a1ca 39bf b0b1 a23c 40aa 23bf
00000010: 2804 18bf e4fd d83e 0349 cabf 5f5e 063f
00000020: a8ed 4bbe 6de4 933f 739a a0be df62 ffbe
00000030: 592b ab3e 4ce4 b1be 2ee1 f9be c3b8 32bf
00000040: 9395 2bbf 1226 ff3e 4d2a 22bf 9884 25bf
00000050: b25c a93e 73e2 203e 4239 283f 38c9 2e3f
00000060: 6c79 d4bd 5bf8 28be eb1c c83e af5b d33e
00000070: aff7 703e 746b 04bb bff5 59bf aac9 7cbf
00000080: 696d 4dbf 3de9 133e 8f64 e23e 1aec 913f
00000090: f489 a8be da58 98bf a895 a6bf 41ba 3cbf
000000a0: ddb9 4cbe eb46 243e f6b8 933c 635f 173f
000000b0: 0602 843e 2622 95be 5e61 85be 7617 06bf
000000c0: 0b72 a53f 98b6 df3e d025 bd3f 1dcd 033f
000000d0: f926 753e 8691 0c3e 008f 913e 5c8c d13e
000000e0: 43db 50bf 858a 8cbf b7f0 fa3e 6d3e 993f
000000f0: f3b3 6a3f 988b 253e 6414 9b3e 65d2 033f
00000100: 33bf 283f 426f 51bf f872 1a3d 696c 1f3f
00000110: c256 82be a1b8 10bf cca0 21bf ff3f 883e
00000120: 7d93 93bf c11a a13e 58d6 4a3f 6d20 a5be
00000130: ab0b a5be 2243 753e 06c4 1d3d b0e7 193f
00000140: ec13 a6bd a770 643e 2bb8 913e e074 bbbf
00000150: 778a 00bf c09b 263f 7e31 e73e 05fb 323d
00000160: 107a ecbe 6174 22c0 b6fb f5be b598 e9bf
00000170: 457d 443e 6a88 6abe 5b64 b33d b82d 223f
00000180: 40f8 2e3f 5226 25bf 26f3 efbe 763c 6e3d
00000190: 76e5 93bf b47d 9cbe e311 953f bddf 293f
000001a0: 7c28 c9bf fea9 edbe 9032 f2be 90f8 773e
000001b0: fd17 a2be 8c6b 55be f7dc c9bd 165d 12bf
000001c0: 0589 9fbf 5bb2 d4be 4d08 bebe 50e5 a03f
000001d0: ed53 eebe 3302 863e 3547 e5bf 7c76 5abf
000001e0: 5749 3fbf 3419 5dbf 1b29 ddbd 9d13 61bf
000001f0: 336b 08bf 0227 683f d816 963c 7f6f 92be
00000200: 07c1 db3d d727 cdbe 1ca4 d1be cbe6 24be
00000210: f957 80be 139e 753e 30b5 bc3d be8e 90be
00000220: f057 3a3f b5bc 363f eeb6 72bd 5c6b cb3e
00000230: 72d3 7cbe 3260 3abf 0d59 8c3e cf99 07bf
00000240: d6f7 b2be 7b74 11be 94ac d1be ed78 643b
00000250: c0cf 15bf 723b 353f a7ed 0b3f e2b2 40bf
00000260: bd9e 31bf 6fc1 a6be 7b7e aebe 5694 033f
00000270: 8cfc b43f f4c0 adbe 4c16 ae3e 3fcb d2be
00000280: 7cb0 fe3e f8ef 70bf 322a 633f 8469 343f
00000290: 0c6a 043f d0d6 9cbf fec7 983e 9514 59bf
000002a0: fd5a bc3d 1f7b 72be 929a ebbe a4a8 0d3d
000002b0: bee5 893f 91e7 00bf d63e 94bf c278 b6bd
000002c0: 9da6 4fbf 8500 a23e 4c9d abbe 4b7b 8bbf
000002d0: 7cc8 9abf 7107 cfbe df7a 3ebf 61a4 dcbe
000002e0: bcbd abbe 6d3f 2a3e 71af c7bf 64cb 783f
000002f0: de07 67be 7a2a 99be 796e 88be 230e 923e
00000300: 4e5c c5be 178b ed3e 3518 523f b15b bc3e
00000310: 2f4b 833e e3c7 25bf 9e23 08bf bbc8 e7be
00000320: 6f73 35bf 0af5 443f 4759 49bf 4371 cebe
00000330: c757 46be c985 4cbe 361d ce3e 1c28 b1bf
00000340: 2681 a23e 6b63 c63e 509d 603f 4a26 0abf
00000350: 72fe 0bbf 332e 16bf 7fe4 19be 0629 51be
00000360: 74b5 d53e 6eba ff3e 2eaf 07be 25bc a63f
00000370: b2aa 94be 0389 27bf 0972 8bbe 4bc2 783d
00000380: 5c8b c23e dcda 0ebe d808 ccbd 0281 363f
00000390: 8da1 d03c aadc efbc 6d91 60bf 7ff7 043f
000003a0: 0be3 c83e 6460 f8bc 647a 3dbf d4d2 aabe
000003b0: 358c 74be ded3 debe 44a4 bebf a623 ba3e
000003c0: fb83 76be 59bb 53bf 3160 ce3e 28d6 92be
000003d0: fb9e 0cbf 8593 eebe b48a 8e3d ccf0 8b3d
000003e0: 9be7 b3bf f47c 9d3f f523 9abe a833 d0be
000003f0: bc54 23bf 1a8c 67bf 9ee0 47be 031d 80bf
-1.2348535 -0.7257481 0.019860119 -0.63931656 -0.5938134 0.42381203 -1.5803531 0.5248775
-0.19914877 1.1554085 -0.31367835 -0.4988012 0.3343151 -0.3474449 -0.4880461 -0.69813174
-0.6702511 0.49833733 -0.63345796 -0.64655447 0.33078533 0.15711384 0.6571237 0.68275785
-0.10374722 -0.1650099 0.39084563 0.41280887 0.23531984 -0.0020205649 -0.85140604 -0.98745215
-0.8024507 0.14444442 0.44217345 1.1400177 -0.3291775 -1.1902115 -1.3014421 -0.737217
-0.19992776 0.16042678 0.018032532 0.59129924 0.25782794 -0.29127616 -0.26050848 -0.5237955
1.2925428 0.43693995 1.4777164 0.51484853 0.23940648 0.13727388 0.28429413 0.40927398
-0.81584567 -1.0979773 0.49011776 1.1972176 0.9168083 0.16166532 0.30288994 0.5149291
0.65916747 -0.8181039 0.0377073 0.62274796 -0.25456816 -0.5653172 -0.6313598 0.26611325
-1.1529385 0.31465724 0.7923331 -0.322513 -0.32235464 0.2395139 0.03851702 0.6011915
-0.081092685 0.22308598 0.28460822 -1.4645042 -0.5021128 0.65081406 0.45154947 0.043696422
-0.46186876 -2.5383532 -0.48043603 -1.8249727 0.19188412 -0.229036 0.08759376 0.6335101
0.6834755 -0.645116 -0.46865195 0.05816313 -1.1554401 -0.30564654 1.1646084 0.6635702
-1.571548 -0.46418756 -0.473042 0.24215913 -0.31658927 -0.20841807 -0.09856599 -0.5717329
-1.246369 -0.41542324 -0.37115708 1.2569981 -0.46548405 0.26173553 -1.7912356 -0.8533704
-0.7472128 -0.8636658 -0.10798856 -0.8792055 -0.53288573 0.9068452 0.01832144 -0.2860069
0.107301764 -0.40069458 -0.40945518 -0.16103666 -0.25067118 0.23986082 0.09214246 -0.28233904
0.7279043 0.71381694 -0.059256487 0.39730346 -0.24690035 -0.7280303 0.2741169 -0.5296907
-0.3495471 -0.1420459 -0.4095198 0.0034862116 -0.58520126 0.7079383 0.54659504 -0.75272954
-0.6938284 -0.32569453 -0.34080872 0.5139822 1.4139571 -0.33936274 0.34001386 -0.4117069
0.49744022 -0.94116163 0.8873626 0.70473504 0.51724315 -1.2253056 0.29840082 -0.8479703
0.09197042 -0.2367978 -0.46016365 0.034584656 1.0773237 -0.5035334 -1.1581676 -0.089097515
-0.81113607 0.3164102 -0.33518445 -1.0897001 -1.2092433 -0.40435365 -0.74406236 -0.4309416
-0.33543193 0.16625758 -1.5600415 0.9718535 -0.22561595 -0.2991522 -0.26646784 0.2852641
-0.38546985 0.4639518 0.82068187 0.36788705 0.25643298 -0.6475813 -0.5317935 -0.45270333
-0.7087926 0.769364 -0.7865185 -0.40320787 -0.19369422 -0.1997291 0.4025666 -1.3840365
0.31739157 0.38747725 0.8774004 -0.53964674 -0.5468513 -0.58664244 -0.1502857 -0.20425805
0.4174 0.49946922 -0.1325042 1.3026167 -0.2903648 -0.6544344 -0.2723544 0.060732167
0.37996948 -0.13950676 -0.09962624 0.712906 0.025467658 -0.029280026 -0.877219 0.5194015
0.3923572 -0.0303194 -0.7401488 -0.33363974 -0.2388161 -0.43521017 -1.489388 0.36355323
-0.24073784 -0.82707745 0.40307763 -0.28679013 -0.54930085 -0.46596923 0.06960049 0.06833038
-1.4055055 1.2303758 -0.30105558 -0.4066441 -0.6380117 -0.90448153 -0.19519278 -1.0008854
