DL/A2/bbrbm3_task5.pth (torch_old, 483415 bytes, 3 tensors)

v_bias f4 [1, 400]
000000 7e a1 c9 be 84 df 77 be eb 8a 8b be 65 7a a1 be
       -0.3938102 -0.24206358 -0.27254423 -0.31538692
000010 a4 b7 b7 bd 63 91 4b be 28 3e 2b bf 37 a9 ac bf
       -0.089705735 -0.1987968 -0.6689172 -1.348914
000020 a9 91 17 be 9d 5a c8 be 7c 4a e0 be 57 39 84 be
       -0.14801659 -0.39131632 -0.43806827 -0.25824997
000030 d9 dc ec be 1e 95 23 be 78 e8 eb be 44 d1 53 bf
       -0.46262243 -0.15974852 -0.46075797 -0.8274119
000040 a3 71 1c be c3 60 dd bd 9a 61 40 bf b0 45 07 bf
       -0.15277724 -0.108094715 -0.7514893 -0.5284071
000050 bf 33 81 be 75 da a0 be e1 49 db bf 41 47 e4 bf
       -0.25234792 -0.3141667 -1.7131921 -1.7834245
000060 5e 78 83 be 85 a2 dc be 6e b7 e0 be 5f 7f 02 bf
       -0.2567777 -0.43092743 -0.43889946 -0.509756
000070 7a 0a b7 be ee 0a 50 be 48 68 e9 be f1 57 4f be
       -0.3575018 -0.2031667 -0.45587373 -0.2024839
000080 84 f9 dc be 9e ee 98 be 39 0d 0d c0 4b cf 17 bf
       -0.43159115 -0.2986955 -2.203932 -0.5930068
000090 98 53 ec bf bf da 5f be 4d 90 7c be f2 d4 99 bf
       -1.8463011 -0.21860789 -0.24664421 -1.2018111
0000a0 cf 29 f8 be 34 d2 fe bd a6 5c 43 bf fe 21 f8 be
       -0.48469397 -0.12442437 -0.76313245 -0.48463434
0000b0 6c f0 42 bf 96 25 0e bf da 51 79 be d7 b8 85 be
       -0.76148105 -0.555261 -0.2434763 -0.26117584
0000c0 f7 f2 17 be 75 64 96 bf 11 48 a0 bf ac 11 8b be
       -0.14838777 -1.1749407 -1.2521993 -0.2716192
0000d0 24 51 be be da 72 7b be 93 54 06 bf 2e db b8 be
       -0.3717128 -0.24555531 -0.524728 -0.3610472
0000e0 39 f2 05 bf 1f f9 c3 bd 1a 90 57 be a0 98 92 be
       -0.5232273 -0.095690005 -0.21051064 -0.2863207
0000f0 b4 24 82 be c9 c8 a3 3b 7a 00 86 bf cf b1 99 be
       -0.25418627 0.0049983007 -1.0468895 -0.3001847
000100 3c 53 1b bf de f6 92 be 76 e2 48 be d4 3f a0 be
       -0.6067388 -0.2870397 -0.19617638 -0.31298697
000110 86 b6 a5 be e6 13 9c be b7 29 12 be 37 56 e5 be
       -0.32365817 -0.3048393 -0.14273725 -0.4479234
000120 bb ac df be bc 11 e4 be 07 c1 ad be 9b a2 07 bf
       -0.4368647 -0.4454478 -0.3393633 -0.5298249
000130 28 f8 f2 bd ab 19 2c bd 43 61 b0 bf a0 d8 8d be
       -0.11863738 -0.042016666 -1.3779682 -0.27704334
000140 fe 7f 82 be fd 07 a2 be bc 7e 57 be f0 9f d0 be
       -0.25488275 -0.3164672 -0.21044439 -0.40747023
000150 43 ed 4d bf 0e 94 9f be f1 9e 7a bf 94 c8 51 bf
       -0.8044016 -0.31167644 -0.97898775 -0.8194668
000160 54 3b df be 2a b9 52 be 73 0d 63 bf c2 63 03 bf
       -0.4359995 -0.20578447 -0.88692397 -0.51324093
000170 ad d8 ac bc d4 a0 8f bf f4 17 9a bf 5b c0 2a be
       -0.021099413 -1.1220956 -1.203856 -0.1667494
000180 29 f0 19 bf 8a ee 26 bf 5b 7d 7e be 9d 36 f4 bd
       -0.6013208 -0.6520773 -0.24852507 -0.11924479
000190 b9 e4 f2 be 2e bc c6 bf 7a 1c cd bd 15 f4 75 bf
       -0.47440127 -1.5526178 -0.10015197 -0.96075565
0001a0 ff 64 7d bf 20 49 9c bf 65 e7 44 be 36 e9 0a be
       -0.9898223 -1.2209816 -0.19228895 -0.13565525
0001b0 88 df dc bd c0 8d fd be d0 0c d7 be 50 98 58 be
       -0.10784823 -0.4952221 -0.42001963 -0.21151853
0001c0 0e a3 23 bf e4 3c f6 be 1c 25 46 3e aa 1c 24 c0
       -0.63920677 -0.4809333 0.19350094 -2.5642495
0001d0 94 5e 4d bf 5f 61 91 be 87 51 13 be a5 4f 93 be
       -0.8022244 -0.283946 -0.14386569 -0.287717
0001e0 49 6f a3 be f0 89 b7 be 15 56 f3 be 65 08 e2 bd
       -0.3192084 -0.35847425 -0.47526613 -0.110367574
0001f0 79 a0 69 bf 01 90 4e bd 7f 8e 2c be a1 89 88 be
       -0.91260487 -0.0504303 -0.16851233 -0.26667503
000200 ca d7 e0 bf 17 43 6e be 02 43 3b bf 02 17 00 bf
       -1.7565854 -0.2326778 -0.7314912 -0.5003511
000210 de c2 0e bf 37 f4 2f bf e9 d2 0b bf 87 87 0e bf
       -0.55766094 -0.6873202 -0.546187 -0.5567555
000220 5b ac 48 be 33 c2 c3 be 21 6e 68 bf 79 d2 7d be
       -0.19596998 -0.382341 -0.90793043 -0.2478732
000230 da a5 98 be 8e d9 3b bf b5 e7 f1 be 30 b2 f4 be
       -0.29814035 -0.7337884 -0.4724709 -0.47792196
000240 83 d5 b6 be 71 e6 9e be b0 5c 77 bf b7 35 dc be
       -0.35709772 -0.31035188 -0.96625805 -0.4300973
000250 7c 62 ba be a7 1f ba be 2d 61 9c be 22 22 ae be
       -0.36403263 -0.36352274 -0.3054289 -0.34010416
000260 0b 65 a0 be 33 e4 19 bf de c7 d4 be b2 90 c3 be
       -0.3132709 -0.6011383 -0.41558737 -0.3819633
000270 e8 e2 07 bf b7 53 68 bf c1 42 c9 be 0f 32 84 be
       -0.53080606 -0.9075274 -0.39308742 -0.25819442
000280 6e 59 82 be 65 cb 12 bf 7a da 83 be da df b2 bf
       -0.25458854 -0.57341605 -0.25752622 -1.3974564
000290 c1 12 d2 be 79 7c e6 be 99 51 48 bf 4e 9d 96 be
       -0.41029933 -0.4501684 -0.7824951 -0.2941689
0002a0 54 9b 00 bf 3a 98 cc bf 0b 98 4a be 72 14 1e be
       -0.5023701 -1.5983956 -0.19784562 -0.15437487
0002b0 39 de ac be b0 91 81 be 18 07 dd bf 4d 86 5b be
       -0.33763292 -0.25306463 -1.726779 -0.2143795
0002c0 0c ec f4 be ad b0 f0 be c6 8f c9 be ca 74 82 bd
       -0.4783634 -0.47009793 -0.39367503 -0.06369932
0002d0 f4 61 d6 be 7f 26 d7 be 88 39 93 bf 23 1b 6b bf
       -0.41871607 -0.42021558 -1.1501932 -0.9183828
0002e0 d9 4c 0f bf ad 35 38 be 58 2d 0a bf c5 ea 3a be
       -0.55976635 -0.17989226 -0.5397544 -0.1825362
0002f0 e7 69 f3 be ad 4a 94 be e8 3f 4b bf d8 82 25 be
       -0.47541735 -0.28963223 -0.7939439 -0.16163194
000300 1b 6f 13 bf 5c ed 16 be a9 6d cc be 9e 94 19 c0
       -0.5759141 -0.14738983 -0.39927414 -2.3996959
000310 7d 4c 2e bf 59 b1 0c be 83 00 7a bd cd 03 2b be
       -0.6808546 -0.13739528 -0.061035644 -0.16700669
000320 e9 4e ef be c0 06 97 be e8 61 8d be 85 38 56 be
       -0.4673989 -0.29497337 -0.2761376 -0.20919998
000330 f4 21 99 be 70 c0 17 bf 3d 26 46 bf 07 78 54 bf
       -0.29908717 -0.5927801 -0.77402097 -0.8299565
000340 cd fd 57 be 83 1a f7 be 8a 8a bd be b8 64 15 bf
       -0.21092911 -0.48262414 -0.3701976 -0.5835681
000350 ed 1d 32 bf 8d 1d a7 bf 8d 53 c5 be 61 9f 8a be
       -0.69576913 -1.3055893 -0.38540307 -0.2707472
000360 df 52 2f be 3c 8f eb be 6b 6f b7 be c1 e6 3d be
       -0.17121457 -0.46007717 -0.35827193 -0.18545057
000370 96 fe 5a bf 6f c4 6d be 92 a3 02 be 00 c3 da 3c
       -0.8554472 -0.23219465 -0.1275771 0.026704311
000380 98 77 cf bf 3f 8b 0e bf 97 22 02 bf 2f e0 ac be
       -1.6208372 -0.5568122 -0.5083403 -0.33764789
000390 7f 41 ee be 59 6b 8f bf 1c 3b d2 bd ca 8b e1 bf
       -0.46534345 -1.1204635 -0.102651805 -1.7620785
0003a0 ff d2 37 bf a3 01 3f bf 19 3b 6b be db 18 52 be
       -0.7180633 -0.7461187 -0.22971763 -0.20517294
0003b0 26 cd 1f bf 10 49 26 bf f4 12 f7 bf f2 7b e2 bf
       -0.62422407 -0.64955235 -1.9302659 -1.7694075
0003c0 44 67 06 be d0 da 7f be 10 cd bc be b2 3e 9e be
       -0.1312533 -0.24985814 -0.368752 -0.30907208
0003d0 06 e3 75 be 47 9a 81 be 7e 6b d1 be 95 89 94 bf
       -0.24012384 -0.25313017 -0.40902323 -1.1604487
0003e0 58 5c b8 be f8 2f cc be fe f4 ac be 70 25 23 bf
       -0.36007953 -0.39880347 -0.33780664 -0.63729
0003f0 7e 2a 3e be 26 35 39 bf 1b 64 6a bd 6f 3b 43 be
       -0.18570897 -0.72346723 -0.057224374 -0.19065641

h_bias f4 [1, 300]
000000 1a fd 50 be d0 3b 85 be 0f cf 3d 3f e2 6c 00 40
       -0.2040905 -0.26022196 0.7414407 2.0066457
000010 01 71 0f 40 a7 1b 81 3f 6e ce 23 3f 39 b8 20 40
       2.2412722 1.0086564 0.6398686 2.511244
000020 d7 78 29 be 47 62 c4 3f 56 18 d8 3f 81 53 4d 3d
       -0.16550003 1.5342492 1.6882427 0.050128464
000030 41 ea e3 3f 6f 17 70 3f 58 ba 19 3f 74 8f 31 40
       1.7805864 0.93785757 0.60049963 2.7743807
000040 fa 59 9f 3d d7 ed 88 3e 1a 0c 39 be a3 91 2d be
       0.077808335 0.26743957 -0.18071023 -0.16950087
000050 4e 0f 67 3f 13 bf 04 40 33 06 48 3e de 2d 8a bd
       0.9025773 2.0741622 0.19533615 -0.0674703
000060 e5 46 52 3e 63 b4 3d be 34 49 95 3d 67 fc 18 bf
       0.20534857 -0.18525843 0.07289353 -0.59760135
000070 7c 7e a2 be 97 51 80 3e b0 39 bf 3d 1b fb fc be
       -0.31737125 0.25062248 0.09337175 -0.49410328
000080 f4 d8 e8 3f 4e e8 dd bd 3b 8d d0 3e 96 92 de 3f
       1.8191209 -0.10835324 0.4073275 1.7388484
000090 f3 83 97 be de 5e a0 3e c6 cc b9 be b9 3b bb bd
       -0.29592857 0.31322378 -0.36289042 -0.091422506
0000a0 7b bf a5 be a4 78 49 3f 3e ac fe 3f da 59 30 3e
       -0.3237265 0.7869971 1.9896314 0.17221776
0000b0 d7 43 23 40 8d 34 a8 3f b8 34 16 3f ef 1e 21 3f
       2.5510156 1.3141037 0.5867419 0.62937826
0000c0 d2 c8 86 3a f2 85 2b bd 3b 47 f0 bd 55 42 74 bd
       0.0010283238 -0.041875787 -0.11732336 -0.05963357
0000d0 61 09 c5 be 51 b1 5e 3e 28 11 ab 3f ed 40 f1 be
       -0.38483718 0.21747328 1.3364611 -0.47119847
0000e0 49 41 8b be dd 7c 01 bf d9 67 2a 40 57 9f 85 bd
       -0.27198246 -0.5058115 2.6625884 -0.06524532
0000f0 49 e3 5e be 6c 9c 82 be b0 23 be 3e 92 6c bb 3f
       -0.2176639 -0.25509965 0.37136602 1.4642508
000100 ac 7f 33 be 89 ff 89 be 83 2a 07 40 7d 05 96 3e
       -0.17529172 -0.2695277 2.1119697 0.29301062
000110 75 f4 a2 be 6b 8c e3 3e 32 2a 95 3f 33 61 7b 3e
       -0.3182713 0.44443068 1.1653502 0.24548797
000120 a6 fc 04 40 d8 cc 0a 3d 6e 7c 23 3d f6 e8 d9 be
       2.0779204 0.03388676 0.039913587 -0.42560548
000130 c2 e6 45 3e 30 77 98 be ea 2c 4c bc 17 bc 61 be
       0.19326308 -0.29778433 -0.01246188 -0.22044407
000140 21 50 79 be 1b a4 c0 3e 95 89 7e bd c5 b3 e4 3f
       -0.24346973 0.37625203 -0.062142927 1.7867361
000150 90 1f 6d 3a 59 52 94 3c cd cc a2 be 28 02 13 3d
       0.00090455357 0.018105673 -0.31796876 0.03589073
000160 a7 a6 68 be 5a 45 36 3f d9 a1 9c be 48 b6 26 be
       -0.22719823 0.7119957 -0.3059223 -0.16280472
000170 ff 55 71 be bd 25 75 3f 1c 0e f3 3f 35 93 04 bf
       -0.23567961 0.9576071 1.8988681 -0.5178712
000180 fe 22 21 40 ba 8d da 3f 0f b6 03 3e 9b d2 80 3f
       2.5177608 1.7074502 0.12862419 1.0064272
000190 13 b2 18 3f 3e 1c 9e 3f 1d b2 f5 bd f6 00 72 3e
       0.5964672 1.2352369 -0.11996863 0.23633179
0001a0 f0 b3 6b 3e 3b 97 10 bf 68 aa 7f be 25 8c 9c be
       0.2301786 -0.5648076 -0.24967349 -0.30575672
0001b0 df 64 92 3f 38 78 22 bf 05 f2 48 3f 21 85 47 3f
       1.1437033 -0.6346469 0.7849429 0.77937514
0001c0 7c 50 92 be a1 c2 f5 be 72 03 99 3e 61 46 9c 3e
       -0.2857703 -0.48000053 0.2988544 0.30522445
0001d0 44 4e 3e 3e 9b 58 5a 3f 5e 29 37 be 97 d2 56 3f
       0.18584543 0.8529145 -0.17886874 0.83915085
0001e0 50 92 3f 40 2b 34 b1 bc cc c9 42 be cc 73 5e be
       2.9933052 -0.021631321 -0.19022292 -0.2172386
0001f0 9d 97 fb be 32 47 de 3f 2c 43 4b be e6 f0 11 3f
       -0.4913911 1.7365477 -0.19849843 0.57008207
000200 fb 4e bf 3f 54 a0 80 3e 9c 2c 12 3d 26 63 e1 3e
       1.4945978 0.2512232 0.035687074 0.44020957
000210 c1 6c e0 3f ed dc be be 3a d7 05 bf ab 67 82 3e
       1.7533189 -0.37277928 -0.52281535 0.25469717
000220 74 c7 ef be 6f 38 97 bd 02 a0 05 40 a9 94 20 be
       -0.46831858 -0.07383811 2.087891 -0.1568171
000230 7c 44 51 3f 8f 0e 0d bd 03 50 c3 3d 13 46 7e 3f
       0.81745124 -0.034437712 0.095367454 0.99325675
000240 3f f5 41 3f 0e 6a ad 3d 87 93 23 40 d0 46 8e 3f
       0.7576484 0.08467494 2.5558794 1.111536
000250 f0 8a f7 3f fd 5e aa bc 0c a2 3e 3e 44 21 f5 3f
       1.9339275 -0.020797247 0.18616503 1.9150777
000260 b9 e0 70 be 24 17 9d 3d 16 66 6f 3f c8 91 1d 3f
       -0.23523225 0.07670429 0.93515146 0.6155057
000270 cb 86 ba 3f fa 5d a9 3f f7 d7 8d 3e 3c 82 8e 3e
       1.4572386 1.3231804 0.2770383 0.27833736
000280 db 77 81 be 79 bd 43 3f e1 c3 00 3f 3a 8c 02 3e
       -0.25286755 0.7646099 0.5029889 0.12748805
000290 1e a7 7c be 21 a1 db 3f fa 0b ac be 6c d8 8a 3e
       -0.24673125 1.7158548 -0.33602887 0.27118242
0002a0 b5 8b d0 3e b3 8a a9 be 72 e9 d2 3c 16 f1 ab 3f
       0.40731588 -0.33113632 0.025746081 1.3432949
0002b0 ff a2 d5 3e 91 e0 27 3f 02 75 47 3f 46 b4 c8 be
       0.4172592 0.65577036 0.77912915 -0.39200038
0002c0 64 d1 16 3e 22 89 12 3d 98 92 d9 3f af 32 a5 3e
       0.14728314 0.03577531 1.6997862 0.3226523
0002d0 5f e6 81 bb 44 d8 a8 3f 19 7d a1 bd 3f 24 92 3f
       -0.00396423 1.3190999 -0.078851886 1.1417311
0002e0 6b 6a 16 bd 98 8c 46 be 61 22 9f be 3e 87 45 3f
       -0.03672258 -0.1938957 -0.31080917 0.7715949
0002f0 8b d9 c8 be 4a 74 01 40 f3 09 87 3d e4 4f 2c 40
       -0.39228472 2.0227227 0.065936945 2.6923761
000300 0c 90 9b be 74 81 97 be 5f 37 31 3e 18 2d 7c 3f
       -0.30383337 -0.29590952 0.17306279 0.9850631
000310 b3 d9 a0 3f 62 9a df be 54 3b ac 3f 26 cc 71 be
       1.2566437 -0.43672472 1.3455606 -0.23613033
000320 fb 7c 15 bf 10 17 39 be cc cc 2f 3e 51 be 1f 3f
       -0.5839383 -0.18075204 0.17167968 0.62399775
000330 63 a1 b0 be 7a 47 60 3e b5 32 19 bf 45 1d f2 3e
       -0.34498128 0.21902266 -0.59843 0.47287956
000340 44 e3 55 be 75 fb 04 3f 33 3a 10 be 23 b0 1c 3e
       -0.20887476 0.5194619 -0.14084701 0.15301566
000350 4b d5 03 be 00 4d b5 be 13 e1 18 3f 78 c2 ea be
       -0.12874334 -0.3541031 0.59718436 -0.45851493
000360 d5 6d f5 be d4 44 a0 3e dd e7 02 3f 10 64 09 bf
       -0.47935358 0.31302512 0.51135045 -0.5366831
000370 99 2a 92 3e c5 51 04 3f cd a2 8d 3f 6f 5d ad be
       0.28548124 0.5168727 1.1065308 -0.33860347
000380 9b c7 8a be 71 70 f4 be 7e 19 da bc 88 b7 89 3f
       -0.27105412 -0.47742036 -0.026623484 1.0759134
000390 77 0a 87 be cb e1 c0 be 1c eb af 3e ea 68 8a be
       -0.26375172 -0.37672266 0.34359062 -0.27033168
0003a0 3b 50 46 3f 66 68 a3 be 64 34 38 bf d9 87 24 40
       0.7746617 -0.31915587 -0.7195494 2.5707915
0003b0 13 c1 88 be 66 5e 3d 3e 5d ee 5d 40 f3 57 a3 3d
       -0.26709804 0.18493041 3.4676735 0.07975759
0003c0 7c 8a bd 3d 30 37 09 bf cb a4 ad 3f ed c8 18 40
       0.092549294 -0.53599834 1.3565916 2.3872635
0003d0 bf 82 6c be 97 ca a7 3f a1 57 c7 3f 51 93 bd be
       -0.2309675 1.31087 1.5573617 -0.37026456
0003e0 34 9d 6d 3d 05 1a 11 be 66 f1 a1 be 10 c0 df be
       0.05801125 -0.14170082 -0.31629485 -0.4370122
0003f0 30 1a 98 be df da 91 be 85 a4 fc 3f aa 6c 6f 3f
       -0.2970748 -0.28487298 1.9737707 0.93525183

weights f4 [300, 400]
000000 d2 67 e6 3e 5c fa 10 3f 6a 23 01 3d 0a 16 12 bf
       0.45001084 0.5663202 0.031527914 -0.5706488
000010 74 8c a0 3f d6 47 1d 3e 5d 1a 17 c0 06 16 7e be
       1.2542863 0.15359434 -2.360984 -0.24813089
000020 d8 ac 9a bf 81 1b 43 bf a5 37 9c be a1 3c 7e bf
       -1.2083998 -0.7621384 -0.30511203 -0.9931126
000030 fa 5f 9b bf b7 6f f1 3f 0f 50 22 bf 89 cb 73 3e
       -1.2138665 1.8862218 -0.6340341 0.23808111
000040 e3 54 48 bf 46 44 cc 3d 57 05 b0 3f 2d d3 04 40
       -0.78254527 0.099739596 1.375163 2.0753891
000050 5c 40 21 bf 6f 71 59 bf 7c c0 12 3f 9b ca 4b 3f
       -0.6298883 -0.8493871 0.5732496 0.79606026
000060 63 0c 58 bd a8 38 74 bf 2f bf 0b c0 0e be dc be
       -0.052746188 -0.9539895 -2.183544 -0.4311375
000070 28 85 9d bf 5b 60 55 3d 47 d3 87 bf b7 d1 d4 3f
       -1.2306261 0.052093845 -1.0611352 1.66265
000080 0d 5d 79 be e0 dc 9b 3e d1 da a9 3f 68 eb c1 be
       -0.24351902 0.30441952 1.3269902 -0.37874913
000090 2f 4b 85 3f 0d be 96 bf ca 2c 99 3e d8 35 ba bf
       1.0413569 -1.1776749 0.29916984 -1.4547682
0000a0 be 8b 51 3e 4f cc 61 bf 1a bf 42 bf 31 a9 92 be
       0.20463464 -0.88202375 -0.7607285 -0.28644708
0000b0 79 46 3d 3f 86 35 4b 3f eb ba 9d 3e ec 25 8c 3f
       0.7393566 0.79378545 0.3080667 1.0949073
0000c0 ba 2c 59 bf d8 48 6b bf 69 c4 cc 3e a7 f9 c4 3e
       -0.8483387 -0.91908026 0.399936 0.3847172
0000d0 a0 8d f6 3f 6d 97 eb bf 05 07 07 bf 73 37 be be
       1.926197 -1.8405586 -0.52745086 -0.3715168
0000e0 41 11 74 be c4 55 a6 3f 9c 94 1a 3f b2 05 49 bf
       -0.23834707 1.2994924 0.6038301 -0.78524315
0000f0 fa 09 d2 be 2a 6c 48 bf 50 03 bc bc 03 4d be 3b
       -0.41023237 -0.78290045 -0.022950798 0.0058075204
000100 e5 18 30 be ee 8d 64 3f 56 2e 0f 3f eb a0 96 be
       -0.17196997 0.8927907 0.5593008 -0.29419646
000110 e0 09 72 3e 14 92 c5 bf fc a3 50 3f a4 55 99 bf
       0.2363658 -1.5435205 0.8150022 -1.197926
000120 46 ce aa be 92 cb 84 bf a3 ce 0e bf e2 08 d7 bf
       -0.333605 -1.0374625 -0.5578405 -1.6799586
000130 56 32 e3 3f 33 89 f4 bf 7d d9 4b 3e f7 27 65 bf
       1.7749736 -1.910437 0.19907184 -0.89514107
000140 74 52 c0 3f 99 7f 60 3f 58 f7 88 be 54 57 3d bf
       1.5025163 0.876947 -0.26751208 -0.7396138
000150 c2 3d 2d 3f 85 0e a9 3e 01 56 12 3e 9f 54 d6 be
       0.6767236 0.3301889 0.1429062 -0.41861436
000160 ca 51 37 c0 f5 59 a9 bb 73 e5 ee bf 99 0f 60 3f
       -2.864367 -0.0051681944 -1.8663772 0.875238
000170 7d 05 7e bf 15 95 ed bc 92 06 2c 3e 16 c5 bd 3e
       -0.99227124 -0.029001752 0.16799381 0.37064427
000180 fe 97 fc be e1 bc a4 bf d7 b5 71 3f 6f 25 28 3d
       -0.4933471 -1.2870141 0.9441809 0.041051324
000190 fb d1 dd 3f 16 03 92 bf 6a 94 e4 bf 41 ef 2c 3e
       1.7329706 -1.1407192 -1.7857792 0.16888143
0001a0 ae 75 8b bf 70 c3 0d c0 ad d6 a8 bf 46 3f 93 3e
       -1.0895288 -2.2150536 -1.3190514 0.2875921
0001b0 fa c0 1b 3f d9 f8 f4 bc 8a 62 f4 bf b6 23 cc bf
       0.60841334 -0.029903816 -1.9092572 -1.5948398
0001c0 70 82 ee be a4 5d 6d 3f cd 01 bc bf 11 52 bd bf
       -0.4658389 0.9272101 -1.468805 -1.479067
0001d0 02 33 c9 bf f7 e7 2c 3f 8a 4f 77 bf 16 cc af 3f
       -1.5718691 0.6754145 -0.9660574 1.3734157
0001e0 9a 0f 8b be 82 14 ae 3e af 89 c1 3f a3 a1 d0 be
       -0.2716034 0.3400002 1.5120143 -0.4074832
0001f0 29 87 e1 3e 0d af 1c bf ee da 03 bf aa a5 da bf
       0.44048432 -0.61204606 -0.51505935 -1.7081807
000200 3e 28 a7 bd 90 5f dc bf b6 dc ee be 26 2e 7e bf
       -0.081619725 -1.7216663 -0.46652764 -0.99289167
000210 c1 54 af 3e d1 b7 d9 be ea 4d 8f 3e f4 b9 b9 bf
       0.3424435 -0.42523053 0.2798913 -1.4509873
000220 4a c5 ab 3b f6 b3 95 be f7 29 0c be d4 c7 9e bf
       0.0052420245 -0.29238862 -0.13687883 -1.2404733
000230 cb e3 75 be 21 29 85 3f 5c 55 16 bf e9 78 a7 3f
       -0.24012677 1.0403177 -0.58724 1.3083774
000240 b4 f7 80 3f 82 cd df 3e 79 60 21 3d 47 7f 0b c0
       1.0075593 0.43711478 0.039398644 -2.1796434
000250 95 6f 8d 3e a2 2c 42 bf e7 68 e7 3e 85 1e 9a 3f
       0.27624193 -0.75849354 0.45197222 1.2040564
000260 ee af 32 3d 9b ec 06 3e e7 70 86 3f 97 55 77 bf
       0.04362481 0.13176195 1.0503205 -0.96614975
000270 ad 2a 06 3e 1b a4 0b bf b1 d6 a3 3f dc da 9d bf
       0.13102217 -0.5454728 1.2799894 -1.2332416
000280 f9 98 2a be e2 75 1d 3e 82 1b 93 3e eb 3e 11 bf
       -0.16659917 0.15377 0.28731924 -0.5673663
000290 4e dc 2d 3e 00 ae 24 3d 9f d2 e3 3f cd fe 20 3f
       0.16978571 0.040205 1.7798651 0.62888795
0002a0 f4 5a 00 40 c2 0e c6 bf 8a 16 04 c0 85 cb d6 3f
       2.0055513 -1.5473254 -2.0638757 1.6780859
0002b0 63 86 ab be dc cc 61 3f 92 e1 3d 3f ff 2e c8 bf
       -0.33500966 0.88203216 0.7417232 -1.5639342
0002c0 fa 52 40 be 9c 7e 28 bf c8 5f 63 3f 7e 14 9b bf
       -0.18781653 -0.6581819 0.88818026 -1.2115629
0002d0 c0 ba 95 bf b3 fd e7 be 93 ee 52 bf 24 68 b6 3f
       -1.1697617 -0.45310745 -0.82395285 1.4250531
0002e0 cb d8 fb 3d 32 3e fb be dc ba 25 3f 44 18 58 3f
       0.12297209 -0.4907089 0.6473825 0.84412026
0002f0 4d 65 48 be 14 63 a5 3e eb 9d e2 bf 52 cd 20 bf
       -0.19569893 0.32302153 -1.7704443 -0.62813294
000300 b5 b5 78 bf e3 5d cf be 03 04 af 3e fc eb fd bf
       -0.9715226 -0.40501317 0.34182748 -1.9837642
000310 d3 f8 09 3e b7 02 fd be e8 4a 62 3f 7d eb a4 3f
       0.13473825 -0.49416134 0.8839555 1.2884365
000320 15 fb 03 c0 87 36 9e 3f ab f8 c6 bf 7e 24 ed 3e
       -2.0621998 1.236039 -1.5544637 0.46316904
000330 55 8e b8 3e d1 03 8d bd 73 e8 0d 3e a1 0a ac bf
       0.3604609 -0.068854935 0.13858204 -1.3440744
000340 89 69 5d bf ce 8f 8e 3f fb 08 05 bf 06 30 a5 be
       -0.8648916 1.1137636 -0.5196683 -0.322632
000350 a8 4d ce bf 65 1a 2b bf 07 e6 cb bf 38 bd ae 3e
       -1.6117449 -0.6683715 -1.5929574 0.34128737
000360 a3 c0 9b 3f 2d c5 87 3f d3 36 e7 bf 5c a3 7e 3f
       1.2168163 1.0607048 -1.8063606 0.99468017
000370 25 5f 23 bf dd 0f b5 bf 85 92 23 40 7b 28 a6 3f
       -0.63817054 -1.4145466 2.5558178 1.2981104
000380 84 d6 07 3e ca ec d5 bf 91 30 99 3f 15 97 89 be
       0.13265425 -1.6712887 1.1967946 -0.2687308
000390 c9 71 b9 bf a0 1c ee 3d 14 69 9a 3f 74 55 a9 bf
       -1.448785 0.116265535 1.2063317 -1.3229203
0003a0 4b c2 30 c0 2a de 13 bf 02 62 1e bf 66 21 61 3f
       -2.7618587 -0.5776087 -0.618683 0.87941587
0003b0 5d e9 84 be e7 fe 0e c0 88 c3 42 bf 64 28 b2 3f
       -0.25959292 -2.234308 -0.76079607 1.3918576
0003c0 4f 2e b3 bf cf ef d1 bf ce f3 19 40 d0 fc c5 be
       -1.3998507 -1.6401309 2.4055057 -0.38669443
0003d0 79 cf 3a bf f6 cd 2c 3e 89 28 9a 3f f5 5e 70 c0
       -0.7297283 0.16875443 1.204362 -3.7557957
0003e0 84 73 db 3f 17 65 10 3f 36 fc b9 3e 3a ba 25 bf
       1.7144628 0.5640425 0.36325234 -0.64737284
0003f0 1a 62 51 3e e4 1a 20 3f 2c 21 1f be 0d fe 1c bf
       0.20447579 0.6254103 -0.15539998 -0.6132515
