DL/A2/net1_task1.pth (torch_old, 102001 bytes, 4 tensors)

fc1.weight f4 [50, 500]
00000000: 07be 1a3e 0077 08bd 9b85 a83e 4416 b6bd
00000010: b293 9f3b 3f6b c7bd 63fc 493d 3615 9b3d
00000020: fe63 2dbb 079f 27be 0050 cdbd 4868 4cbe
00000030: 309c 79be 06ef d33d 544b 84be d7b4 f3bd
00000040: b5f2 92bd 800d d83d 36d9 16be fb91 6c3d
00000050: 4c4a 0abc abd1 de3d 4438 e8bd 4712 2cbd
00000060: 7e85 92bd b32f 283d 6b3c fabd e053 dfbd
00000070: a7d4 db3d 409c 643d 95b9 da3c ac33 413c
00000080: 887f 823d c994 d63c 4176 c03c c906 383d
00000090: 44a8 20bd e656 813c 5d0b 16be 6133 f0bc
000000a0: 1ec6 d9bb a533 39bd c40c 0a3d 9f78 743d
000000b0: 44ad 27be 9aca 0ebd d3bd ce3d 9113 62bd
000000c0: eb27 903d b711 8c3c fcf1 b93d ceef ecbd
000000d0: f787 4e3d 3d0e 733d 2515 333d 2755 893d
000000e0: ed6b 11be 75e6 673c d221 ab3d 7da1 4a3e
000000f0: 3420 3dbd d06c 0fbe 5778 1e3c 46ec e6bd
00000100: ad9a c1ba d8ee f53d 0f09 153d a14c 973d
00000110: b76d 9cbd 9734 17be a2ca 153c 923b 223c
00000120: be1f 5abe a4a3 ff3d 6714 0e3c 5dec 88bd
00000130: ed06 183d ee75 053b 63d2 4d3d d5ac 4fbd
00000140: 3793 00be 178d 883d 9ea5 0a3e 7319 053e
00000150: 301f 9fbc 904e 623d af1a 44b9 c644 013e
00000160: e227 edbd 21b4 d43d 91eb aebd 5b15 cb3d
00000170: ab6c e6bc 0913 be3d a861 dc3a 5b40 94bc
00000180: c380 2bbd 4d6f cc3d 3a9e d5bc c0d6 02bd
00000190: f22c cfbd 4d15 53bd 447c 843e b25a 81bd
000001a0: 8ff4 1bbe 61f5 95bd 362f 73bd be82 bcbd
000001b0: 2b78 233d e579 a33d 78dd 32be 3563 1d3d
000001c0: 38d3 ae3b cf99 27be 8e7b a6bb 9d93 06bd
000001d0: e603 433e 33ac c83d c89c 1abe a7a7 803d
000001e0: d360 a33d 481f 213d e268 d9bd c75a f8bd
000001f0: 90e5 47bd a575 96bc 3ace 8f3d e63b 43bd
00000200: 62e5 c8bb 2df5 bbbd 0bbb babb 3fa7 d9bd
00000210: f9e2 abbc 1453 f53c 6f3e 443d 344d 953d
00000220: 6fcb 02bb 7c95 493c 1caf 6f3d 7ed2 913c
00000230: 559d 9b3d 2bac 093c 188c 9bbd fe16 ecbd
00000240: 13fb c93d bcc1 1ebd 1fe2 6d3d 03b9 803d
00000250: dbac 633d 9500 cfbd 3d87 153e 6600 fa3c
00000260: 6a5b 13be 4482 d2bd 3121 e8bd 6f48 abbb
00000270: 5680 ed3d ddd6 073d dea8 d33c 4faf d13b
00000280: 3f70 2ebe da33 83bd 0d2d 063d f566 cf3d
00000290: 9753 c03d 5324 96bd d1d1 3dbd e297 41bd
000002a0: 03ff 27bd 64c2 0f3e 3189 ae3d 4190 6d3d
000002b0: 7701 29be c9c2 723d fc7b 00be 3da8 343e
000002c0: 0629 0e3c 6028 7ebd b31f a63d fd5f 193b
000002d0: 1543 afbd c92f 453d 7645 f83d 205d 353d
000002e0: 99a2 8d3d 4c49 97bd 2ed9 063e b9d8 3e3d
000002f0: fcf2 ddbd 7e94 d1bb 9423 673b b7e5 f33b
00000300: 98e1 743c a927 dbbc 989f d5bd 3e2d cc3d
00000310: d3e7 0cbe 0912 66bd f8f5 d13c a157 933c
00000320: 913b 8abd fc4f 57bd 1950 123d bf3f e03c
00000330: 2043 393d 60a1 4abd 98ef 25be c532 3fbd
00000340: 5afc 1abe 6bd7 cb3c 9fdb 60bc 291e d8bc
00000350: 4704 58bd 2393 6ebc 8763 6e3d 66ef 87bd
00000360: 2d04 943d c0ff efbd 4903 b53c 88d6 f6bd
00000370: 6386 9abd 8e3a c43d 64f1 5dbd bb6f 54bd
00000380: fb4f 8f3d 5568 d7bd d530 a53c f771 b73c
00000390: 204b ce3c cb4d 023d 43d9 693d ecfc 8f3d
000003a0: e71e c7bc 96cd 8dbd bd81 463e bd3a 763d
000003b0: 33fe 82bd c2f4 dc3c ddd1 9e3d ba4c 173d
000003c0: a1b5 8e3b e448 dabd 8d76 203b 3521 33bc
000003d0: cc6a ff3b 9eb4 5c3b 0370 9abd 816d cf3b
000003e0: bdc6 62bc fef1 d43b d181 fc3b ed29 283d
000003f0: 5183 47bd 3e3f afbd 6ef4 d93c 2d19 febd
0.15111552 -0.033316612 0.32914433 -0.088909656 0.0048699016 -0.097372524 0.04931296 0.07572405
-0.0026457305 -0.16369258 -0.100250244 -0.19961655 -0.24375987 0.103483245 -0.2583872 -0.11899727
-0.07175199 0.1054945 -0.14731297 0.057756405 -0.008440565 0.10879835 -0.11338857 -0.042009618
-0.07154368 0.041061115 -0.12218555 -0.1090467 0.107339196 0.055813074 0.02669982 0.011792105
0.06371981 0.026193993 0.023493888 0.044928346 -0.03922297 0.015788507 -0.14652772 -0.029321374
-0.006645932 -0.045215268 0.03370358 0.059685346 -0.1637469 -0.034861185 0.100948 -0.05519444
0.07038864 0.01709829 0.09079358 -0.115691766 0.050422635 0.05933975 0.043721337 0.06705695
-0.14201327 0.014154066 0.0835606 0.19788165 -0.04617329 -0.14006352 0.009672246 -0.11275534
-0.0014770828 0.120084465 0.036385592 0.07387663 -0.07638114 -0.14766155 0.00914255 0.009901898
-0.21301171 0.12482384 0.0086718565 -0.06685708 0.03711598 0.002036448 0.05024947 -0.050701935
-0.12556158 0.06667536 0.1353974 0.1299799 -0.019424051 0.055250704 -0.00018701957 0.12623891
-0.11579873 0.10385919 -0.085410245 0.099161826 -0.028127989 0.092809744 0.0016813772 -0.018097093
-0.041870844 0.099821664 -0.026076425 -0.031943083 -0.101159945 -0.051533986 0.25876057 -0.06316127
-0.1523001 -0.07322193 -0.059371196 -0.092046246 0.039909523 0.07982234 -0.17467296 0.03842469
0.005335238 -0.16367267 -0.005080647 -0.03285562 0.19044456 0.097984694 -0.1509887 0.06281977
0.07977452 0.039336473 -0.10615708 -0.121266894 -0.048802912 -0.018366644 0.070217565 -0.047664545
-0.00613086 -0.09177623 -0.005698567 -0.10627603 -0.020982252 0.029946841 0.047911104 0.07290116
-0.0019957682 0.012303706 0.058516607 0.017800566 0.07598368 0.008402864 -0.0759508 -0.11527823
0.09862342 -0.03875898 0.058076974 0.06285288 0.05558477 -0.10107533 0.1460237 0.030517768
-0.1439034 -0.102787524 -0.11334456 -0.0052271406 0.11596744 0.033163894 0.025837358 0.0063990722
-0.17035006 -0.06406374 0.032757808 0.10127059 0.093909435 -0.07331147 -0.046342675 -0.047263987
-0.041014683 0.14038998 0.08522261 0.0579989 -0.16504465 0.059267793 -0.12547296 0.17642303
0.008676773 -0.062050223 0.08111515 0.002340316 -0.08557717 0.048141275 0.121226236 0.044278264
0.06915779 -0.07387027 0.13168785 0.0465934 -0.10837361 -0.0063958755 0.003526901 0.0074431556
0.014946364 -0.02675231 -0.10430831 0.09969567 -0.13760309 -0.056169543 0.025629982 0.01798612
-0.06749643 -0.052566513 0.03572092 0.027374147 0.04523003 -0.049470305 -0.16204679 -0.046679277
-0.15135327 0.024882993 -0.013724237 -0.026381569 -0.052738454 -0.014561447 0.058200385 -0.066374585
0.07227359 -0.11718702 0.022096293 -0.12052637 -0.075451635 0.09581481 -0.054185286 -0.051864367
0.06997677 -0.10517947 0.020164886 0.02239321 0.025182307 0.03181247 0.057091963 0.07030663
-0.024306728 -0.06923978 0.19385429 0.06011461 -0.06396141 0.026972178 0.07754872 0.036938407
0.004355148 -0.10658434 0.0024484724 -0.01093321 0.0077947136 0.0033676992 -0.07540896 0.0063301926
-0.013841328 0.0064985743 0.007705905 0.04105561 -0.048709217 -0.08556984 0.026605811 -0.12407146

fc1.bias f4 [50]
00000000: b500 793d 68af 353d c7d7 8bbe 212f 493d
00000010: f3dc f2bc b258 fdba 7a8c 483e 2e47 ee3d
00000020: 93c0 d33d 33a0 a53c aaa5 8ebd 12c8 6ebd
00000030: 0909 1dbe 48e2 183c a362 22be 3868 e7bc
00000040: e2ac c9bc f576 273d de0c c63c b9f9 4dbd
00000050: 8d0c 863d 438d 793c 6c93 86bc 3521 90bd
00000060: ce4d 9a3e 4a69 b73d 8844 453d bbf0 c1bd
00000070: 629f 85bc 3f6c 8cbd 4d43 8e3b d1de a03c
00000080: 8d70 973d 74f3 79bb 9904 da3d acf3 d53b
00000090: c740 73bd be10 24bd 94e4 9a3d e5ee eebc
000000a0: d183 bb3b e1b8 923c d418 11be 4eb7 11be
000000b0: 3faf 4cbd 935e cf3d 1623 853d 2b95 283d
000000c0: ba70 23be 0a07 0abe
0.06079169 0.044356734 -0.27313063 0.04911721 -0.029646372 -0.0019328801 0.19584838 0.1163467
0.10339465 0.02021799 -0.06965192 -0.05829627 -0.15335478 0.009331293 -0.1585794 -0.028247938
-0.02461857 0.04088493 0.024176057 -0.050286982 0.065453626 0.015231433 -0.016427718 -0.07037584
0.30137485 0.08955629 0.04816106 -0.09469744 -0.016311351 -0.06856584 0.004341519 0.019637497
0.07394514 -0.0038139494 0.10645408 0.006529292 -0.05938795 -0.04005503 0.07563129 -0.029166648
0.005722501 0.017910423 -0.14169627 -0.14230081 -0.049971815 0.101254605 0.06500833 0.041157883
-0.1596097 -0.13479248

fc2.weight f4 [5, 50]
00000000: 83d5 063f 9a5f 5abe 89c0 40be 0de2 7cbf
00000010: 700b 8d3f 7bff 933f 108a b63e e1b5 6cbf
00000020: fc83 d0be d064 0a3e 6df7 00be 777c 2fbf
00000030: 331c ae3f cb12 63be 9fbd f9be c4bb 543f
00000040: 0eed cfbc 9797 ac3e 03b5 8abe 43f7 0ebf
00000050: 70b1 e2be a09b 7abf 4701 613e 3785 ee3d
00000060: 8d2c 753d bff8 d03e b2e4 7dbf cea5 92bc
00000070: 0329 45bf 510c 0abf 9bd8 923e 9652 563f
00000080: d5c8 2e3f 36b2 903e 014f 91bd f288 663f
00000090: 7aec 863f 60f2 173f d0b7 333e 09ec 233f
000000a0: 751d 2cbf 0fcf 023f 8fd0 23bf 011c 813f
000000b0: 1d2e e1be e6ce 86bf 4b2b 83bf 3b19 33bf
000000c0: 5de9 4fbe 5a82 a43f dd1c 67bf dcfa 35bf
000000d0: 1d2e 953f 3f55 bcbe a513 193f 1c6c 68bf
000000e0: 1d9f 74bf 6c7c 12bf 7a73 4abf 7584 b7be
000000f0: 0c6c 3f3f e245 00bf 1fde fd3e 0b95 173e
00000100: 83e2 7c3f f430 dc3e 5ee6 3b3f fb1d 3ebf
00000110: c6f1 85bd c717 493d c6fe 47bf 0533 9dbe
00000120: 91ab 083f 6e51 e03d 0de3 6abf 3640 5fbf
00000130: a58a 2b3e 4ae1 5e3f e313 473e 00d8 3e3f
00000140: c210 fcbe 03d9 71be dae4 6dbf 9cc2 1bbd
00000150: 4751 e13e 82cf bf3e 8cb4 64bf bb4e ed3e
00000160: 3ebb 48bf 7611 09bf 7e5f 503e 3174 d9be
00000170: 1ea0 853f 7871 3c3f efd6 37bf f744 30bc
00000180: c588 b73e fdb2 b83e 8609 6d3f 65bd 2abf
00000190: faaa 7b3f 42d0 613c 1adc 6e3e ad9f 20be
000001a0: b8d1 8ebf 83db 143e 99a6 39bf c421 043f
000001b0: 700f 20bf 3a31 7d3f aa42 c8be d0e5 723f
000001c0: ce97 6abf e2e7 cebd 8f52 d7be 048a afbe
000001d0: 62f2 23bf f9ed 52bd 62ff 4e3f 524a f5be
000001e0: 5e2e 083f 7b3c c23e ee0d 38bf 8e24 73be
000001f0: 11ef b9be ab45 483f c874 343f 6ad8 fabe
00000200: 6a2a 01bf f447 13bf 2115 843f c551 9a3e
00000210: e194 cbbd 7d24 8cbf b71b 1e3f 4558 17bf
00000220: 7d30 6f3f 940b dcbe c56f 18be e2cf 87bf
00000230: 521e 99be 92c5 b3be a205 3abd bc56 27bf
00000240: bc90 a53f 678c 6a3f 5faa 833f 2ab2 36bd
00000250: 85c0 c13d b7f4 3f3d ec51 7bbe f8f8 8cbb
00000260: a42d 26bf 8284 fc3e fecb cebe 9fb9 2d3e
00000270: 6a7c 593f 5195 853f 172b 073f 5328 973d
00000280: fd4f d33e 756b 35bf 6ca4 0fbf c8c4 60bf
00000290: fa93 96be 5bc1 bdbd 9991 713f 4a6d b4be
000002a0: eb64 e5be b079 983f aac9 363e ac97 443e
000002b0: f41c 523f fbd3 4bbf 3fb1 0f3f 75d7 8fbf
000002c0: c2d7 3cbe 4b17 3dbd 00a9 a63f a8c5 563d
000002d0: 5e6e 51bf eee6 b0bd bd96 843f 76d1 783e
000002e0: 1ea8 a73e f395 48bd 9561 cbbe 0eee 85bf
000002f0: f69c 953f 1766 393f e858 4c3f 03b4 563f
00000300: 1d8d 63bd c98c 17bf fc4e 823d 6689 84be
00000310: da35 03bf 2615 483e 8668 d9be 344b 79bf
00000320: 45b9 04bf 1cb2 5e3f fc43 43bf 0fc4 2b3f
00000330: 2927 77bd c5cf 3cbf 13d5 183f 389a 34bc
00000340: 9d72 8f3f a2b6 61bf d95e 44bf 26da 823f
00000350: 1cdd 21bf c72f 8b3f 7a43 8ebc c0ef 30bf
00000360: 5285 6abf 2fb1 3b3f f9ca acbe 0704 91bd
00000370: bf63 d23e b420 633f 0a4f 38bf d068 623f
00000380: 788b da3e 8b71 763f ec3b a03d bfad 07bf
00000390: 69c6 bcbe f5e5 833c 7883 723c b51e 6bbf
000003a0: 66b7 36bf ae23 3f3f 580c 99bf 9862 2cbf
000003b0: cbc8 42bf 7f12 d23e aed4 66be 5de7 c93d
000003c0: cbb9 a13e 85b5 02bf 76e9 acbe d407 19bf
000003d0: f4be e3be 41dc a43e 4fbb f83e 8253 933e
000003e0: f50a 0fbf bfd8 863e
0.52669543 -0.21325532 -0.18823446 -0.98782426 1.1019115 1.1562341 0.35652208 -0.92465025
-0.40725696 0.1351502 -0.12594385 -0.68549293 1.3602356 -0.22175138 -0.48777482 0.8309901
-0.025381591 0.33709404 -0.27091226 -0.5584604 -0.44276 -0.97893715 0.21973144 0.116465025
0.05985694 0.40814778 -0.99177086 -0.017901327 -0.77015704 -0.53925043 0.28680882 0.83719766
0.68275195 0.28260964 -0.07095147 0.9005271 1.0540917 0.5935421 0.17550588 0.64032036
-0.6723245 0.51097196 -0.6399011 1.0086671 -0.43980494 -1.053189 -1.0247587 -0.69960374
-0.20303865 1.285228 -0.90278417 -0.71085906 1.1654698 -0.36783788 0.597956 -0.9078996
-0.9555529 -0.572211 -0.79082453 -0.35843244 0.7477424 -0.5010663 0.49583527 0.14802949
0.9878313 0.43006098 0.7339839 -0.74264497 -0.06540255 0.04909494 -0.7812313 -0.30702987
0.5338679 0.109530315 -0.917527 -0.87207353 0.16752107 0.87062514 0.1944118 0.7454834
-0.49231535 -0.2361794 -0.92927325 -0.03802739 0.44007322 0.37463003 -0.8933799 0.4634913
-0.7841071 -0.5354227 0.20348927 -0.4247146 1.0439489 0.7361064 -0.7181234 -0.01075863
0.35846534 0.36074057 0.92592657 -0.66695243 0.98307765 0.013782563 0.2332615 -0.15685911
-1.1157751 0.14536862 -0.7251983 0.5161402 -0.62523556 0.9890324 -0.3911336 0.94881916
-0.91637886 -0.10102822 -0.42055175 -0.34284985 -0.6404172 -0.05149648 0.80858433 -0.47908264
0.5319575 0.37936768 -0.71896255 -0.23744413 -0.36315206 0.78231305 0.70490694 -0.48993236
-0.50455344 -0.57531667 1.0318948 0.3014051 -0.09940506 -1.0948635 0.6176104 -0.59119064
0.9343336 -0.42977583 -0.14886387 -1.0610316 -0.29905945 -0.35111672 -0.045415528 -0.6536672
1.2934794 0.91620487 1.0286368 -0.044603504 0.09460548 0.046864238 -0.2454297 -0.0043021403
-0.6491339 0.49319845 -0.4039001 0.1696534 0.84955466 1.0436193 0.52800125 0.07380738
0.41271964 -0.7086709 -0.5611026 -0.87800264 -0.29409772 -0.09265395 0.9436279 -0.3523963
-0.44803557 1.1912136 0.17850366 0.19198483 0.8207543 -0.7962033 0.5612983 -1.1237627
-0.1844168 -0.046164792 1.3020325 0.052434593 -0.8180903 -0.08637796 1.0358502 0.24298653
0.3274545 -0.048971128 -0.39722887 -1.0463274 1.1688526 0.724214 0.7982316 0.83868426
-0.055554498 -0.59199196 0.06362721 -0.25886077 -0.51254046 0.19539317 -0.42462558 -0.97380376
-0.518452 0.86990523 -0.7627561 0.67096037 -0.06034008 -0.7375453 0.59700125 -0.011023097
1.1206852 -0.881693 -0.76707226 1.0222824 -0.6322801 1.0873955 -0.01736616 -0.6911583
-0.9160968 0.73317236 -0.33748606 -0.07080846 0.41091725 0.88721776 -0.71995604 0.8844118
0.4268453 0.96267 0.07823929 -0.5299949 -0.36870125 0.016100863 0.014801852 -0.9184373
-0.71373594 0.7466382 -1.1956892 -0.6733794 -0.76087636 0.41029736 -0.22542068 0.09858582
0.3158706 -0.51058227 -0.33771867 -0.5977757 -0.44481623 0.3219929 0.48580405 0.2877465
-0.55876094 0.2633724

fc2.bias f4 [5]
00000000: 9e21 c8bd faae cdbd 4c6d 163e 8df1 a4bc
00000010: 4e7a 0b3e
-0.09772037 -0.1004314 0.14690131 -0.020134712 0.13620874
