DL/A2/net2_task1.pth (torch_old, 101961 bytes, 4 tensors)

fc1.weight f4 [50, 500]
000000 26 fe 54 bd 91 fe 69 3d a8 f2 65 3c 59 13 71 bd
       -0.052000187 0.05712754 0.014034905 -0.058856342
000010 a0 92 b1 3d 8d 21 52 bd 24 d2 b0 3d 99 b9 49 bd
       0.086705446 -0.051301528 0.08633831 -0.049249265
000020 82 68 82 3c f4 5c ce bc 7e b7 5d 3d cd 4b 26 be
       0.015918974 -0.025190808 0.05413007 -0.16239853
000030 e0 c5 5c bd 5a 89 d6 bc 1c 64 7b bd e4 61 1c 3d
       -0.053899646 -0.026188541 -0.06137477 0.038179293
000040 20 7b b6 3d ba 95 88 bc cf bf 82 bd c2 96 c7 3a
       0.08910203 -0.016672958 -0.06384241 0.0015227424
000050 b3 73 5f 3d 55 bf 4a bd 34 89 4d 3c 64 71 1a be
       0.0545537 -0.049498875 0.012544919 -0.15082318
000060 10 35 b9 3d fc 7f ca bd bc be 7e bc b8 78 43 3d
       0.09043324 -0.09887692 -0.015548404 0.04772255
000070 3d 40 e9 3c ec cd 71 bd 6a af 8b 3d a1 1f 8a bd
       0.028473014 -0.059034273 0.06820567 -0.06744314
000080 a1 29 35 bc 72 c1 94 bd 22 b4 3f bd 9e 3b 6d bd
       -0.011057288 -0.07263459 -0.046802647 -0.057918184
000090 ac 4a 49 3d bd 4a da 3d af f8 fc 3c 6e 8a 18 be
       0.04914348 0.106587864 0.0308803 -0.14896557
0000a0 e0 f8 d0 3d 7a 53 d9 bc 7d 27 8c 3d 4d 2d 11 bc
       0.10203719 -0.026529063 0.06843469 -0.008860898
0000b0 9b ac 7c bb c9 88 cd 3d b9 dd 06 3e 70 ee 48 bd
       -0.003855503 0.10035855 0.13170518 -0.049055517
0000c0 bf fe 16 3d 78 d3 35 bb 5b 46 72 3c 94 b9 fc 3d
       0.03686404 -0.0027744453 0.014787282 0.12340084
0000d0 f1 c2 0c bd d0 f8 7a bd 1e e9 58 bc 51 00 4e 3d
       -0.034365598 -0.061272442 -0.013239173 0.05029327
0000e0 8f c2 c9 bd be 38 da bb 2a 30 9d bd 27 c0 4b bd
       -0.09851562 -0.006659596 -0.07675202 -0.049743798
0000f0 ba 62 5e 3c 95 31 98 3c a1 da 2e bd b7 b6 a2 bd
       0.013573343 0.01857833 -0.04268897 -0.07945006
000100 4e 80 23 3e 66 18 9c bd 1b 47 18 bd ee d4 d0 3b
       0.15966913 -0.07621841 -0.037177186 0.0063730394
000110 e3 5d b5 bd b2 39 90 bb e4 2d ed bd 96 9e 5c bc
       -0.08855798 -0.004401409 -0.115810186 -0.013465544
000120 a5 10 03 3e 70 1a a3 bd 3f 46 1c 3d 56 9d a4 bb
       0.12799318 -0.07964027 0.03815293 -0.0050236387
000130 f7 86 ce 3c c8 c8 c1 3d 3e d4 cb 3c 3a 94 9b bd
       0.02521084 0.09462124 0.024881478 -0.07596631
000140 8f 4d 2f 3c 54 30 8e 3b 70 85 f5 bd f1 c6 97 bd
       0.010699644 0.0043392573 -0.11988342 -0.07410992
000150 a0 9a 0e 3e 8f da 5a 3d 75 7a 0a bd 60 d2 fe 3c
       0.13926172 0.05343109 -0.03380819 0.031106174
000160 7b ab c9 bc f5 7c 9d 3d 73 f9 d9 bc 11 d4 09 bd
       -0.024617901 0.07689849 -0.026608204 -0.033649508
000170 a0 7b c9 bc c2 71 a4 3c 12 85 f4 bd 55 6f 91 3c
       -0.024595082 0.020073775 -0.11939444 0.017753283
000180 d7 40 8d bc 20 78 9a 3d 44 bf 58 3c 3a 46 ec 3d
       -0.017242832 0.07542443 0.013229195 0.11536832
000190 ee ce e0 3d 3e f8 e3 bd d5 d8 2d 3d 6d a4 b6 bd
       0.10976969 -0.11131333 0.042443115 -0.089180805
0001a0 f1 08 0b 3e 54 21 57 3d 6e 94 0e 3d a6 4a 40 bc
       0.1357763 0.05252202 0.034809522 -0.011736548
0001b0 ee bb f1 bd d0 7d 60 bd 63 59 8a 3c 56 95 af 3c
       -0.11803423 -0.054807484 0.016888326 0.021433514
0001c0 c6 55 68 bd 8d f1 e5 bd b1 06 2c bd 13 67 99 3d
       -0.056722425 -0.11227713 -0.04199857 0.07490363
0001d0 70 57 55 3d 31 c9 32 bc ee 90 2d bb d3 a3 9d bd
       0.05208534 -0.010912226 -0.002648409 -0.076972626
0001e0 75 f5 99 bd d2 0e 8a 3d 58 a2 83 bc 3c c2 76 3d
       -0.0751752 0.06741108 -0.016068622 0.06024383
0001f0 e1 29 9f 3d 90 e4 0f 3d d0 ad 0c 3d 47 e3 e6 3c
       0.0777166 0.035130084 0.034345448 0.028184546
000200 ec 09 90 3d d9 21 06 3d 49 45 37 3e e2 a1 23 3d
       0.070331424 0.032747123 0.17897524 0.039949305
000210 ac d7 2f bd 97 e0 38 bd 1e 8c 09 3a 34 2e cb bd
       -0.04293029 -0.04513606 0.00052470143 -0.09920922
000220 56 56 08 3d fb 02 96 3d 4f 76 74 3d 93 00 ce 3b
       0.03328546 0.07324787 0.05968314 0.0062866895
000230 fb 2e 8d bd bb 0b 94 3c b8 a3 da bc 0b 77 01 bd
       -0.068937264 0.018072 -0.026689395 -0.03160767
000240 2f ae e0 bd 7c fc 8f bd e5 37 3f bd 5d d9 9f bd
       -0.10970723 -0.070305794 -0.046684165 -0.07805131
000250 1f 4c 00 bb 1a 61 af bc 78 19 d3 bd cc e8 b3 3c
       -0.0019576622 -0.021408606 -0.10307592 0.021961592
000260 c9 28 e0 bc bf 85 10 3d 6b 2b 04 3d be 48 5f bd
       -0.027363198 0.0352838 0.03226797 -0.05451273
000270 84 f4 3c bd 4c 98 23 3d e5 be 04 3c aa 25 d1 3c
       -0.046131626 0.039940163 0.008102153 0.025530655
000280 c0 2e 76 3d 71 30 26 3d 74 6e 21 bd 91 88 21 bd
       0.060103178 0.04057354 -0.039411977 -0.03943688
000290 4c 5d da 3c 74 1b 82 bd 61 f2 55 3d f7 37 bc bd
       0.026655816 -0.063528925 0.052233104 -0.09190362
0002a0 06 e6 c2 3d 71 be ac 3d a8 36 c6 3d fc 98 24 bd
       0.0951653 0.08434761 0.096783936 -0.04018496
0002b0 b5 4d 82 3b 53 f4 c2 3d 18 ef c9 3b d0 61 a4 bc
       0.0039765486 0.095192574 0.0061625354 -0.020066172
0002c0 78 f7 85 3d cc c7 83 bd 43 1b 65 3d f8 87 20 3d
       0.065413415 -0.064345926 0.055934202 0.03919217
0002d0 22 33 88 bd 9f 9b 95 bd cd 45 9c bb b7 7a 27 bd
       -0.06650378 -0.07305073 -0.004769063 -0.040888514
0002e0 5b 93 ba bd c6 e2 56 bd 86 17 f2 bc 41 ed e6 3c
       -0.09110137 -0.05246236 -0.029552232 0.028189303
0002f0 d9 df 7d bc 90 82 a3 3d 94 71 01 bd 01 d4 0f be
       -0.015495264 0.07983887 -0.031602457 -0.14045717
000300 8b ff 66 3d 0c 46 85 3d 08 62 66 3d c8 6d 09 bd
       0.05639605 0.06507501 0.056245834 -0.03355196
000310 73 b2 91 3b b4 a3 aa bd 40 4c 77 3b 73 ff df bd
       0.0044463216 -0.08332005 0.0037734658 -0.10937395
000320 b4 a2 2e bb cc cc 6b 3c f5 a6 a0 bd 72 fe 00 3d
       -0.0026647272 0.014392089 -0.078443445 0.031492658
000330 56 00 f6 ba eb 6b 9d 3d ce f2 06 bc 82 9f c0 3d
       -0.0018768411 0.07686599 -0.0082366 0.09405424
000340 35 24 92 bd f4 d7 a6 bd 1d 2e df bc 3e d9 16 bd
       -0.07135812 -0.081466585 -0.027243668 -0.036828272
000350 89 20 58 3d c2 9c 61 3b e4 54 4d 3c db 30 87 3d
       0.052765403 0.003442571 0.0125324465 0.06601115
000360 77 a6 5e 3d 59 80 47 be 95 fc 02 3e 84 f3 42 bd
       0.054357972 -0.19482554 0.12791665 -0.047595516
000370 07 52 8a bd 53 48 e9 3d c4 d2 04 be 89 7b 06 bd
       -0.06753927 0.11390748 -0.12971026 -0.032832656
000380 41 d4 ff 3a a0 6f 98 3d 8c 32 bf 3b 09 92 1a 3c
       0.0019518213 0.07443166 0.005834883 0.009434232
000390 5f 1b 2f bd 79 4b 82 bd c4 90 ed bc 17 4a ab 3b
       -0.042750712 -0.063620515 -0.028999694 0.005227338
0003a0 d2 10 29 bd 31 2b ad bd 1b cf 1d 3c 42 a9 2f 3c
       -0.041275807 -0.08455504 0.009631897 0.010721507
0003b0 b8 6a 80 3b 46 dc 37 be 3d a2 ba 3c 04 dc 0b 3d
       0.003918972 -0.17955121 0.02278244 0.03414537
0003c0 a1 45 99 bd 7a cf a5 3d b4 1a 68 bd e3 ee c8 3d
       -0.07483984 0.08096214 -0.05666609 0.09811189
0003d0 44 25 b7 3d 5f 11 22 3d ab 24 93 3d 34 7c fc bc
       0.08942655 0.039567348 0.07184728 -0.030820943
0003e0 46 21 d9 bc d8 1d 9b 3d 07 d0 22 bd 1e 52 49 3d
       -0.026505124 0.075740516 -0.03974917 0.04915058
0003f0 2b 1b 1a bd 27 73 04 3e 4d b6 4d bd 72 82 35 3b
       -0.037623566 0.12934552 -0.050222684 0.002769616

fc1.bias f4 [50]
000000 56 2a 74 3c 3f 59 aa 3d a4 b4 8f bd 17 a2 8e 3d
       0.014902672 0.083178036 -0.07016876 0.0696451
000010 42 f1 7a be e9 a9 60 bd 19 8b 5a 3e 1a a4 74 bd
       -0.24506095 -0.05484954 0.21342124 -0.059726812
000020 d4 51 a0 be 45 73 1b 3e 07 81 2e 3e 75 c1 20 bb
       -0.3131243 0.1518069 0.17041408 -0.0024529372
000030 c3 82 e9 bd f7 4a 89 3d 25 df 96 3d 2f 10 05 3e
       -0.11401894 0.067037515 0.0736678 0.12994455
000040 f7 2a 89 3e 76 2c 00 3e ec 8e 31 3e 81 ee c4 bd
       0.26790592 0.1251696 0.17339677 -0.096158035
000050 8c 7c d3 bd 41 71 2c 3d 09 07 75 bd ba 08 45 be
       -0.1032649 0.042100195 -0.059821162 -0.1924161
000060 a5 72 6a 3d 51 ad 36 3e 94 b3 50 3c 5e 88 bf bc
       0.05723824 0.17839552 0.012738127 -0.023380455
000070 0f a4 ac 3d c7 2e ef 3d 30 17 8e 3e b6 6d 7a 3e
       0.08429729 0.11678844 0.27752066 0.24455914
000080 a2 4a c7 bc 36 85 17 be d7 6e 2c 3e 1e e4 2b 3c
       -0.02432758 -0.1479691 0.16839157 0.010491399
000090 e2 c6 86 bd d5 25 0d be 19 13 36 be 63 65 00 ba
       -0.06580903 -0.13783963 -0.17780723 -0.00048979203
0000a0 ab b9 97 bd f0 8d ea 3d 1f 87 1b 3b f2 7c ec bd
       -0.0740846 0.11452854 0.0023731661 -0.11547269
0000b0 15 66 9c 3e f5 5f 6e bd 9f ca 86 3e f6 5e fb 3d
       0.30546632 -0.05819698 0.26326463 0.12273972
0000c0 93 43 93 bd bb 01 04 3d
       -0.07190623 0.032228213

fc2.weight f4 [5, 50]
000000 d6 55 25 bf de fc a0 bf c8 45 f9 3e 1e c3 f2 3e
       -0.645841 -1.2577169 0.4868605 0.47414488
000010 07 e3 96 3f 23 92 95 3e 14 a2 4c 3e 98 b3 ba be
       1.1788033 0.29213056 0.19983703 -0.36465144
000020 56 4a 83 3f b6 31 9d bf f6 65 be be 26 62 62 3f
       1.025706 -1.2280796 -0.37187165 0.8843101
000030 ae af 26 bf 56 55 20 3f d9 d5 ab be a1 ed 4a bf
       -0.65111816 0.6263021 -0.3356159 -0.7926884
000040 ba 38 57 bf f9 ea 13 3f 27 56 1d 3f dc 66 08 bf
       -0.8407093 0.57780415 0.61459583 -0.5328195
000050 82 63 16 bf 47 70 85 3f 98 80 ff 3d 47 04 5a 3e
       -0.58745587 1.0424889 0.12475699 0.21290694
000060 fd a6 cb 3b e1 e3 12 bf 39 b0 2c be de 26 a7 be
       0.006214975 -0.57378966 -0.16864099 -0.3264684
000070 50 c2 e5 3d 14 20 dd 3d e1 bd 9e be 38 d8 87 bf
       0.11218703 0.10797134 -0.3100424 -1.061286
000080 d4 a0 31 3e 60 4a f5 3d c7 82 2a bf 65 57 d4 be
       0.17346507 0.119770765 -0.666058 -0.41472927
000090 cd 57 b2 bd e1 83 1e 3f e1 57 b4 3e 46 c6 28 3f
       -0.08708153 0.6191998 0.35223296 0.6592754
0000a0 d9 a1 f9 3e c3 4b 48 be c9 98 b2 bd b3 31 47 3f
       0.48756292 -0.19560151 -0.08720548 0.7781021
0000b0 fa 42 6a bf eb b9 96 bf bd 1f 50 bf 16 a3 89 bf
       -0.9150845 -1.1775488 -0.8129843 -1.0752895
0000c0 c9 57 89 bf ce f9 43 3f 63 1e a7 be 36 4e e6 3e
       -1.0729915 0.76553047 -0.3264037 0.44981545
0000d0 ee 91 97 3e 80 7f 4b bf 77 1c a7 3e f5 8b a7 3e
       0.29603523 -0.79491425 0.32638904 0.32723966
0000e0 d2 66 5b bf 4d 81 42 3f 2a 92 26 3f d6 52 c2 3e
       -0.85703766 0.7597855 0.6506678 0.37953824
0000f0 0d d3 1a bf cb 4a 31 bf c1 98 e2 3e df ad 12 bf
       -0.6047829 -0.6925475 0.44257167 -0.57296556
000100 9a b1 e0 3d b1 2f b8 3c 69 d1 39 bf dc 0c 87 bf
       0.10971375 0.022483679 -0.7258516 -1.0550799
000110 ca d5 8e bf 8d 38 6c 3f 82 b8 4f 3f ef 8c 5e bf
       -1.1158993 0.9227379 0.8114091 -0.869338
000120 3d 8e 2c 3e 32 8c 12 3f 85 42 e6 be 0d 33 b6 be
       0.16851135 0.5724517 -0.44972625 -0.35585824
000130 07 af a8 bd 37 62 9c 3e 86 21 6b bf be b7 83 bf
       -0.08236509 0.30543682 -0.9184803 -1.0290449
000140 35 49 a5 bf ce 27 2e bf 79 8b 1e bf db 85 2c 3f
       -1.2912966 -0.6802949 -0.6193157 0.6739175
000150 15 8f 88 be 84 4f fb 3e a9 90 02 3f 03 58 17 3f
       -0.26671663 0.49084103 0.51001984 0.5911867
000160 85 f1 c2 3e 18 7e fe be a2 54 82 bd e1 00 02 bf
       0.3807489 -0.49705577 -0.06363799 -0.5078259
000170 a1 ab a6 be 59 0b 59 be 57 83 7a bf c6 36 31 3f
       -0.32552817 -0.21195735 -0.9785666 0.692242
000180 22 28 a2 bf 6b 3b 09 3e 2f a1 95 3f 93 15 76 bf
       -1.2668498 0.13401572 1.1689814 -0.9612667
000190 32 81 7a 3d 87 ff 9f bb 46 fe 0d 3f fd 55 40 3e
       0.061158367 -0.004882756 0.55466115 0.18782802
0001a0 5e 8d 7a bf 72 ed 92 bd 81 37 a0 3f 55 94 91 3e
       -0.9787196 -0.07174195 1.2516938 0.2843348
0001b0 32 77 16 bf b2 13 18 3f 64 51 f5 3e 4e cf dc 3e
       -0.5877563 0.5940505 0.4791366 0.4312691
0001c0 8a 1b 32 bf 86 c0 5c 3f dd 8f 15 3f c3 2a 2b 3f
       -0.6957327 0.8623127 0.5842264 0.66862124
0001d0 2a bd 6b 3f 34 ea d4 3e 41 f9 75 3f 92 08 ad 3e
       0.92085516 0.41584933 0.96083456 0.337956
0001e0 86 94 62 bf 13 f6 78 3e 44 8c 57 bf 03 43 d4 bf
       -0.8850788 0.2431262 -0.84198403 -1.658295
0001f0 73 63 58 3e e5 fc 3f 3f b4 ac 1d 3e 07 ed ee 3c
       0.21131687 0.7499526 0.15397912 0.029165758
000200 1d 4e 12 bf 47 56 73 3e 15 2c 1b 3f 4b 34 0f 3f
       -0.5715044 0.23763381 0.6061414 0.5593917
000210 96 7c 95 be aa e7 1e be f1 c4 87 3f a8 36 46 3e
       -0.29196614 -0.1551806 1.0606977 0.19356787
000220 e8 1d b7 3f 8f f4 94 bd 52 e0 13 bf 7e e8 02 3d
       1.4306002 -0.07273208 -0.5776416 0.031960003
000230 d4 7d 28 3d a2 d9 3e 3f b8 4a c6 3c ad 2c b5 bf
       0.041135624 0.7455083 0.02420555 -1.4154259
000240 ec 74 43 3f 24 fe 27 be 7b c6 e7 3e af c6 65 3f
       0.76350284 -0.1640554 0.45268616 0.8975629
000250 c3 5c 19 3d 1e 5d 85 3e 89 f3 76 3f c6 84 4c be
       0.03744198 0.26047605 0.96465355 -0.19972524
000260 0e a0 de be 7d 9d 6d 3f 32 39 e7 be 13 35 b3 3e
       -0.43481487 0.92818433 -0.45160824 0.3500143
000270 d3 eb 84 bf fa 06 f1 be 68 34 d7 be 8e 91 1d bf
       -1.0384468 -0.47075635 -0.4203217 -0.61550224
000280 9b 52 6f bf ef 19 c8 3e 9b 2c 5b 3f 6c ba 16 bf
       -0.9348542 0.39082286 0.8561494 -0.5887821
000290 44 a4 12 bf bf 24 ac be f1 69 90 3d b9 86 4f bf
       -0.572819 -0.33621785 0.07051457 -0.81064945
0002a0 50 3f fe bd 0a 98 61 bf 82 14 39 3d 85 d6 c8 3d
       -0.1241442 -0.8812262 0.045185573 0.09806541
0002b0 cc 50 b6 be f0 f2 dd 3e d2 cd 95 3e 60 e4 0c be
       -0.35608518 0.4334941 0.2925859 -0.13758993
0002c0 ae ed 1e bf 6d 26 f6 3e 74 ce 7e 3e 7c 86 71 3f
       -0.6208142 0.48076192 0.24883443 0.9434583
0002d0 2f a3 c7 be 05 e4 89 3f eb de 95 3c 2f db 10 be
       -0.38991687 1.0772711 0.018294772 -0.14146112
0002e0 4d ad 02 bf e6 da 42 3e 66 a7 a3 bf bd 85 c1 be
       -0.51045686 0.19028816 -1.2785461 -0.37797347
0002f0 4a ac 80 be c2 ed c5 bd cd 02 a6 3e c9 a1 2f bf
       -0.25131446 -0.09664489 0.32424012 -0.6860624
000300 94 9f 39 3f 9c fd 25 3f c3 4f 3f 3f 24 ce 9d 3f
       0.7250912 0.648401 0.7473108 1.2328534
000310 60 1a 6a 3f 9f a5 0d bd dc ec 1b be 90 cf 85 be
       0.91446495 -0.034581777 -0.15227073 -0.2613492
000320 fe 7a de be 15 99 81 3f 8e 80 70 bf bf 02 17 bf
       -0.4345321 1.0124842 -0.9394616 -0.58988565
000330 d2 a6 fe 3d aa 14 51 bf 16 7e 12 3f 5a 2b 32 bc
       0.12434162 -0.81672156 0.5722364 -0.010874594
000340 5d e0 3f bf 84 fb 6f 3f 49 4b a9 3f 79 fc 5f bf
       -0.74951726 0.9374316 1.32261 -0.8749462
000350 71 e1 ed 3c 0d 8d c1 be 57 c1 5d bd 99 c6 4a 3f
       0.029038163 -0.37802926 -0.05413946 0.79209286
000360 b8 e6 e0 3e bb d9 1f 3f e1 42 89 be 03 d7 4e be
       0.43926024 0.62441605 -0.26808837 -0.20199208
000370 5c 7a 3c 3f 3a 83 1c bf 6c 76 30 3f 8a 13 1f 3f
       0.73624206 -0.61137736 0.689307 0.6213919
000380 e9 50 ad 3e b9 19 2c 3f 1a e9 22 3f 56 56 6a bf
       0.33850792 0.6722675 0.63636935 -0.9153799
000390 f0 05 71 3f 1b 3f c1 bd 59 96 9f 3f b6 f3 b2 bd
       0.94149685 -0.094358645 1.2467757 -0.087378904
0003a0 5e 63 39 3f ba ad 5a bf f4 1f 02 3e 37 2e fa be
       0.7241725 -0.85421336 0.12707502 -0.48863384
0003b0 c7 6c 20 bf ca e6 74 bf 18 8c bb be d7 e0 ae be
       -0.6266598 -0.95664656 -0.3663032 -0.34155914
0003c0 81 65 1a bf 3c 5e 38 3f 4b 3e 28 bf ac 12 92 3e
       -0.6031113 0.7201879 -0.6572005 0.2852987
0003d0 31 4f 1f 3f e8 88 f7 be 63 d0 3f 3f b6 10 61 3e
       0.6223021 -0.4834664 0.7492735 0.21979031
0003e0 1b 1a 94 3b 95 10 b7 bd
       0.0045197136 -0.0893871

fc2.bias f4 [5]
000000 c8 e7 05 3d 78 62 5d be 6b 26 b6 3e 9f 58 a0 bc
       0.032691747 -0.21619594 0.35576186 -0.019573508
000010 b7 06 85 bd
       -0.064954214
