DL/A2/net_task3.pth (torch_old, 67452 bytes, 6 tensors)

fc1.weight f4 [50, 300]
00000000: 7dd6 8fbd c2c8 f63c 9bf0 df3b 679b 293c
00000010: baf1 c6bd 3d68 96bd 02bb f23d a1a7 1cbe
00000020: 6d7e 7a3c a725 74bc 3343 eabc 3f36 2ebe
00000030: 992f e63d 45fe 923d e041 b4bc 2b52 1b3d
00000040: 605f 243c 4376 c73b 2206 cd3a 91c9 51bd
00000050: f7e3 abbd 6620 853c 0727 ddbd 5e32 8abc
00000060: 11a0 1ebd 5a50 eb3c bb9d 26bc d9d6 a43c
00000070: 70c1 873d 02cc f0bc 67d3 053d 70a0 b2bd
00000080: 5c6a a03c 0b86 b23c 706c f33d a32e ad3c
00000090: 5b73 09bc dbdc c33b aac1 0d3d 520d 05bd
000000a0: 8ae4 a0bd 4948 d6bd 5bd5 b6bd 2f55 0bbd
000000b0: 7f25 3dbc 11f3 15bd 5cad fabb 91e5 463e
000000c0: c15d 9cbb d3ed 203e 4b51 763d 0ad2 c93d
000000d0: b951 6f3d 7838 09bd 3897 d6bc c886 8e3c
000000e0: 97ae 1db9 b542 e4bd 2bae 33bd abb8 4ebd
000000f0: f378 ccbc 162c 86bd b926 803e 5c00 7b3d
00000100: fd14 cdbd c9f8 c3bd 52a0 e13d a035 e0bc
00000110: 66f9 10bd 32e1 683d 6b73 be3d 7940 8bbd
00000120: 6201 d73d d286 553d 4647 0f3e 05ab 83bd
00000130: 82ee a93d 9461 6dbc 17b1 aebd af1b 0c3e
00000140: 100c b0bd f870 f93c f91a 073e 5be3 e83c
00000150: a42a 94bc a29f d9bc 3fae 78bd a628 dcbc
00000160: 8067 0a3d 6cb9 3f3e 8a6b 8e3d 4bf1 b4bb
00000170: d1c9 3bbe 0d2f d9bc f9cf 423d 4910 84bd
00000180: 4ca3 09be 89a6 c7bd 055b ab3d 9a2b 71bd
00000190: 3949 bfbd 93e1 6c3d 2dff 80bd 00b1 d9bd
000001a0: 5a65 b0bd 0c65 733b 40f3 af3c 0832 b43d
000001b0: 912e 8cbd 0f3e 653c f314 27be e93f 40bd
000001c0: 0416 7bbd ef33 96bd c879 5e3c f42b 8d3d
000001d0: a74d 2dbe 34be a03d c2f2 b0bc f117 9e3c
000001e0: 127b a23d 3216 a93d ca54 d3bc a694 6c3e
000001f0: f500 943d aed6 e33c 4f01 6d3d 4d77 cfbd
00000200: 37c0 f1bc ce2b 3ebd 7dc8 c93c 4630 853d
00000210: 7714 05be 6f72 d0bd c3e0 f73c a73b 1ebc
00000220: d378 04bd 972c 4b3d 8e88 963d ae59 853d
00000230: ee93 2b3b c73e fbbc b3c9 053e 6a71 ffbc
00000240: f2a8 ccbd 0e3a 7b3d c89c d6bd c14b e73c
00000250: e0e5 7c3d 6ae9 133d 4674 473d 25fc 943d
00000260: 3b27 20bd cb00 72bd b4dd 463d 1298 ef3c
00000270: 0b5c 643d f782 7cbb 6a1f 5fbd 5f0b 69ba
00000280: 687d e83c a103 3abb 5568 bfbd 8c25 5cbe
00000290: d4a7 2cbe c511 59bd 2151 3d3b e93c 3bbd
000002a0: dd57 c23d 4c0f 74bc be79 333e fccf 5f3d
000002b0: 5123 013d 9b11 acb9 f810 9cbd 455e 933d
000002c0: bee0 a13c 37ea efbc 5bd9 d2bc 9d85 a43b
000002d0: 98be 863c e2c2 053e 331a 6b3d 075d c1bd
000002e0: 6564 273e 7b01 c73c 19b8 bd3c 1843 84bc
000002f0: 2eb4 8b3d b67f 9fbc 195f c33d d3e9 5ebd
00000300: b1ad 753d 40a6 393b 14cb 95bd c033 b23d
00000310: 9235 003e 4e2b 2fbe 7da9 f43d 4f32 e0bc
00000320: e933 a3bc 1aed c3bb 6317 063e 107c cdbd
00000330: 966b cabd 3054 f4bd 365e edbd b35f 89bd
00000340: 538b 52bd 3766 7ebd a499 5dbd 6e9e 94bc
00000350: 42ce 6e3d e896 013e 36eb 593d 3e5d 86bc
00000360: 7223 9dbd 0189 2f3a 8385 67be b2e4 693d
00000370: fd93 003e cac3 26bc 7b6a 8cbd f7f1 6f3d
00000380: 5c4e 423d e591 6e3d 7de0 203e 3114 303e
00000390: a717 d8bc 1694 18be 54a4 90bd ec10 003d
000003a0: dc97 113d 2b98 543c 1792 033d a570 f1bd
000003b0: c3aa bebd 8471 5fbe f7f8 94bd 8f06 babd
000003c0: 46c2 afbc 8d6f c63c f6b3 873d 058e 023d
000003d0: cdf3 463e eeeb ed3d dc17 443d ed22 213d
000003e0: 7af1 3b3c 7564 7f3d 1c04 20be 9e26 7ebd
000003f0: eac7 abbd 392c f0bd 76c5 d33c 01fe 4cbd
-0.07023332 0.030125026 0.0068341023 0.010351992 -0.097140744 -0.073441006 0.11852075 -0.1529832
0.015288931 -0.014901555 -0.028596496 -0.1701288 0.11239547 0.07177404 -0.022004068 0.03792016
0.010032505 0.006087096 0.0015642087 -0.05121762 -0.0839309 0.0162508 -0.107984595 -0.01686972
-0.03872687 0.028724838 -0.010169442 0.020121979 0.06628692 -0.029394154 0.032672312 -0.08722007
0.019581966 0.021792432 0.11885917 0.021140402 -0.008389319 0.0059772558 0.03460852 -0.032483406
-0.0785609 -0.10463006 -0.08927413 -0.034016784 -0.011544584 -0.03660876 -0.0076500606 0.1942351
-0.0047719185 0.15715723 0.06013612 0.09854515 0.058427546 -0.03350112 -0.026195154 0.017398253
-0.00015037727 -0.11145536 -0.04386727 -0.05046908 -0.024960017 -0.065513775 0.25029543 0.06127964
-0.10013769 -0.095689364 0.11016907 -0.02736932 -0.035394095 0.056855388 0.09299358 -0.067994066
0.104983106 0.052130528 0.13992032 -0.06429104 0.08297445 -0.0144885965 -0.08529871 0.13682435
-0.08596051 0.030449376 0.13193883 0.028428724 -0.018086739 -0.026565377 -0.06071305 -0.026874851
0.03379011 0.18723077 0.06954105 -0.0055219284 -0.18338706 -0.026511693 0.04756162 -0.06448419
-0.13441199 -0.09748561 0.0836697 -0.058879472 -0.09340138 0.05783231 -0.06298671 -0.10629463
-0.08613081 0.0037139086 0.021478295 0.08798605 -0.06844819 0.013991847 -0.16316585 -0.04693595
-0.061300293 -0.07334124 0.01357884 0.06893149 -0.16924153 0.07848778 -0.021600131 0.019298526
0.0793363 0.082561865 -0.025797267 0.2310358 0.07226745 0.027812328 0.057862576 -0.10130177
-0.0295106 -0.046428494 0.024631733 0.06503348 -0.12996088 -0.101780765 0.030258542 -0.009657777
-0.03234179 0.04960307 0.073502645 0.06511246 0.0026180702 -0.030669583 0.13065223 -0.03118201
-0.09993161 0.061334662 -0.104791224 0.028234364 0.061742663 0.036111273 0.04869487 0.07274655
-0.039099913 -0.059082787 0.048551276 0.029247317 0.05575184 -0.003853021 -0.05447332 -0.0008889939
0.02838011 -0.002838351 -0.09346072 -0.21498698 -0.16860896 -0.052995462 0.0028887468 -0.045712385
0.09489415 -0.014896225 0.1752691 0.05464171 0.03152782 -0.00032819514 -0.07620424 0.07195715
0.019760486 -0.029286487 -0.025738409 0.0050208108 0.016448304 0.13062623 0.057398032 -0.09441572
0.16346891 0.024292698 0.023159074 -0.016145274 0.06821476 -0.019470077 0.09539623 -0.05442221
0.0599801 0.0028327852 -0.07314125 0.08701277 0.12520435 -0.17106363 0.1194639 -0.027367739
-0.019922214 -0.0059791924 0.13094859 -0.10033429 -0.09883802 -0.1193012 -0.11590235 -0.06707706
-0.0514024 -0.0621092 -0.0541016 -0.018141951 0.05830217 0.12655222 0.05320283 -0.016401883
-0.07672776 0.00066961354 -0.22609524 0.057102866 0.12556453 -0.010178516 -0.06856247 0.058580365
0.04743801 0.058244605 0.15710635 0.17195202 -0.026378466 -0.1490024 -0.07062593 0.031266138
0.035545215 0.012975733 0.032121744 -0.11789063 -0.09309914 -0.21820647 -0.07274049 -0.09083282
-0.021454941 0.024223113 0.06626122 0.03187372 0.1942894 0.11617266 0.047874317 0.03933995
0.011471147 0.062351663 -0.15626568 -0.062048547 -0.0838774 -0.11727185 0.025850993 -0.050046925

fc1.bias f4 [50]
00000000: 1336 043e 87e1 3dbf 40d6 f4be 8dfb 2dbe
00000010: 688d ecbd 4dc0 e23b 66e0 e3bd 9709 263d
00000020: 33c6 adbc 4509 a3bd 50e3 3bbe 5480 793d
00000030: 5a39 25be e8d9 0a3c 5b20 583e 272b 323d
00000040: a361 023f a53e f1bd cd10 56bd 0a4b 87bd
00000050: f42e bb3d 1824 ab3e 9873 1b3e 0dca 523e
00000060: 9448 d03d c8b5 b3be d73b 973d 902e 23bd
00000070: 4f36 223f ed39 02bf a857 abbe 04cb b33e
00000080: bdbb 3a3e bc5d 9a3d 0a60 153c adf8 cfbe
00000090: 902a 863e cf12 993b 3cde 7cbd 11dd 9339
000000a0: ed59 48be 5033 6d3e af0e 4bbe d7ca 4e3e
000000b0: 7ace 373e c1f1 b03d 9955 14bf 9e1a ebbd
000000c0: aaa9 563e 2c21 5c3e
0.12911253 -0.7417225 -0.4781971 -0.1699049 -0.115504086 0.0069198967 -0.11126785 0.04053649
-0.021212673 -0.079607524 -0.18348432 0.0609134 -0.16135159 0.008474804 0.21106093 0.043498185
0.5093023 -0.117795266 -0.052262116 -0.066061094 0.09139815 0.33425975 0.15180814 0.20584889
0.10170093 -0.35099626 0.073844604 -0.039839327 0.6336412 -0.5086964 -0.33465314 0.35115826
0.18235679 0.0753741 0.009117136 -0.40619412 0.26204348 0.0046714316 -0.061735377 0.00028202732
-0.19565554 0.23164105 -0.1982982 0.20194565 0.17949858 0.08639861 -0.5794311 -0.11479686
0.20963159 0.21497029

fc2.weight f4 [28, 50]
00000000: be9d d0bd 3589 78bf 492d 13bf b50e 1bbf
00000010: f9ac 00bf 93b8 debd 23e7 113f 6dc3 823d
00000020: 2065 fc3c 316f 203e b462 29bf 30e6 093e
00000030: 91ea 1e3e a9d5 0e3f 0de5 613f e78f 0a3f
00000040: 5e9a 8a3f f488 023e 87e2 a0be 5b81 df3e
00000050: b8f4 df3e e883 1bbe 3342 d4be be09 86be
00000060: 5293 ad3c b282 cf3e 803f ab3e 9645 d5be
00000070: 6083 bb3e 6ab4 21bd 4340 ddbc 8ab0 103f
00000080: db05 093f 6abe 6e3f 4439 903d d169 a5bd
00000090: 229b 483f 3c21 66bf 7f82 06be b72b ddbe
000000a0: c0ae 7a3e c3fb ac3e 08eb 64bd f7ff 18bd
000000b0: 09cc a73e b3eb f4bd 8df1 d1bd 6725 f2be
000000c0: 1d0e 7cbe 20d8 a1be 79f2 afbe 956a 9dbe
000000d0: 355b 9dbf de35 afbe 307b c4be 9173 1a3e
000000e0: 93cb d23e b6d2 b7bc 1e5d 873d d92c 893e
000000f0: f7a9 0c3d b7a8 233e 8c6f d73e 1ac0 113f
00000100: ae84 a23e fca3 7a3f 3278 0b3f e0e6 b13e
00000110: e783 c3be 5ebd 0d3f 9d3d b53e 66d8 15bf
00000120: d389 a5be c898 e7be a09b 8fbe c1a8 0fbd
00000130: b21b ea3e 394e 4ebe 5469 80be f062 853e
00000140: aef1 ed3e ff68 8e3f 4555 07be 7d51 ca3e
00000150: 55c0 a43e 1b8d b63e 0971 373f a075 1ebf
00000160: 4743 b63d 8d34 37bf 896c dc3e 779a 2fbe
00000170: 1227 513e e66b 82be dafa 4bbe 7ba3 e6be
00000180: a2ba c13e f5ef 51bf 961d c8be b3d5 7fbe
00000190: 4e03 ea3e c274 0c3b f8ea 8e3f 6f03 28be
000001a0: 628c 313e 5d10 89bd e535 f8bc 785f 183e
000001b0: 763c ab3d 8d40 3f3d ab58 15be 7e1a a93d
000001c0: 50f2 a0be 4639 0dbf 444b c2bd f10b 1dbf
000001d0: 8c66 e8bd b846 cdbb f350 123e 8f30 f9be
000001e0: 7ae9 2abe 10de 9e3e 7442 103f 0de8 723e
000001f0: 66c5 cd3d 21fc 9fbe 811a a7bd bc4d 083e
00000200: adfd 733d 0391 91be 6691 65be 52bc 73bf
00000210: 0faf ec3d bda2 38be dbe6 9dbd 80ac d1be
00000220: f3a7 18bf e060 063f 76e8 9e3d 3061 953e
00000230: 7e15 21be 609b 083f f328 ba3d 2e64 5a3e
00000240: e02a d33e 1482 b73e 78d7 30bf bc20 c73e
00000250: 8a48 35bd cd77 d13d e1a0 e8be d475 ef3d
00000260: 48be 60bf d949 08bd 7690 da3c bc05 873c
00000270: 8266 853e 94c4 f2bc 10e5 cc3d 5d33 043d
00000280: 3455 d83d 0105 9ebb f4ef 803e 34ec b63e
00000290: d943 4bbe 91c3 373f ccef aabd 2d03 bd3e
000002a0: ca03 95be ebf2 793e dfb3 703e d8e4 29bf
000002b0: b13a c0be 532d 7ebe 1458 36be 819f 47be
000002c0: 16f9 9f3e cfc1 263e 00e6 85be e494 053f
000002d0: dcb4 1c3f 990a 043f 66df ccbe 69c2 353e
000002e0: 9296 34bc ff35 f03e 0eff b13e e48a 85be
000002f0: 0ecf 2f3e 6b44 c4be 46e1 a33e 1a4a 82bc
00000300: f42a 163f 11d4 0cbf ec63 35bf 8dda 05bf
00000310: 5da7 cb3e 6eef 05bf 4bb5 b7be b358 1abe
00000320: a8fa 8dbe d386 d63d 3c18 6fbf c881 c7bd
00000330: 9c20 113d f062 683d bd62 133e b58f 003d
00000340: 6b8e bfbd c884 523e ac3b 913e 7ba1 fbbc
00000350: a819 a13e 06bf 923e 03d3 f3bd 406f 543f
00000360: 0066 26bd 5129 a23e af3d cebe 3282 9d3e
00000370: bf98 803e 0472 46bf 31f1 fdbe 5bde 08bf
00000380: dfc0 44be 0db2 99be 0f96 b33e d732 fa3c
00000390: 5898 e1be 289f f63e 25aa 243f c797 2d3f
000003a0: ed50 3cbe eeb2 c53d 31a7 823e 270c 923e
000003b0: 2642 f83e 9b0f 8fbe c11f 673d 2523 24bf
000003c0: 80bf fd3e 20a2 51bc 6070 023f c302 10bf
000003d0: fa72 d1be a851 eabe ae67 9a3e 7306 b7be
000003e0: 11cc 9dbe 97e5 a1be c34c 46be ec5d f7bc
000003f0: f1f5 0dbf 2c76 8d3e 73ba 5bbe 1585 fcbd
-0.10186337 -0.9708436 -0.57490975 -0.60569316 -0.50263935 -0.108750485 0.5699331 0.06384931
0.030809939 0.15667416 -0.66166234 0.13466716 0.15519167 0.5579477 0.8824013 0.5412583
1.0828359 0.12747556 -0.31422827 0.43653378 0.43741393 -0.15187037 -0.41456756 -0.26179308
0.021188412 0.405294 0.33446884 -0.41654652 0.3662367 -0.039478697 -0.027008181 0.5651938
0.5352456 0.932593 0.070421726 -0.080768235 0.78361714 -0.8989446 -0.13135718 -0.43197414
0.24480724 0.3378583 -0.055888206 -0.037353482 0.32772854 -0.119590186 -0.1025115 -0.4729416
-0.24614759 -0.31610203 -0.3436468 -0.30745378 -1.2293459 -0.34220785 -0.38375235 0.15083148
0.4117094 -0.022439342 0.066095576 0.2679203 0.03434178 0.15982328 0.4207729 0.5693375
0.31741852 0.9790647 0.5448028 0.34746456 -0.3818657 0.55367076 0.3539857 -0.5853332
-0.32331714 -0.4523375 -0.2804842 -0.035073046 0.45724255 -0.20147027 -0.2508036 0.26052046
0.4647345 1.1125792 -0.13216121 0.39515296 0.32177988 0.3565453 0.7165685 -0.6189823
0.08899551 -0.7156456 0.43051556 -0.17148767 0.2042506 -0.25472945 -0.19919911 -0.450466
0.37837702 -0.8200677 -0.39085072 -0.24983864 0.45705646 0.0021431898 1.1165457 -0.1640756
0.17338708 -0.06692574 -0.030299136 0.14880168 0.083611414 0.04669242 -0.14584605 0.08257006
-0.3143487 -0.5516552 -0.09487012 -0.61346346 -0.11347684 -0.006264534 0.14288692 -0.4866986
-0.16690627 0.31028795 0.563514 0.23721333 0.100474164 -0.31247047 -0.08159352 0.13310903
0.059568096 -0.28430948 -0.22418746 -0.9520923 0.11556827 -0.1803083 -0.07710048 -0.4095192
-0.5963127 0.5249157 0.07759182 0.2917571 -0.15730855 0.53362083 0.09089842 0.21327278
0.4124365 0.3584143 -0.6907878 0.38892162 -0.04425863 0.10227928 -0.4543524 0.11692396
-0.87790346 -0.03327355 0.026680212 0.016482227 0.2605477 -0.029634751 0.10004628 0.032275546
0.10563126 -0.004822374 0.2518307 0.35727084 -0.198501 0.71782786 -0.08346519 0.36916485
-0.29104453 0.24409072 0.23506115 -0.6636481 -0.37544778 -0.24821977 -0.17807037 -0.1949444
0.31244725 0.1628487 -0.2615204 0.52180314 0.6121347 0.5157867 -0.4001419 0.17749943
-0.011022227 0.46916196 0.34764904 -0.26082528 0.17168829 -0.3833345 0.32007807 -0.015904475
0.5865929 -0.5501109 -0.70855594 -0.5228661 0.39776126 -0.52318466 -0.35880503 -0.15072899
-0.27730298 0.104749344 -0.93396354 -0.09741551 0.03543149 0.05673498 0.14393134 0.03138705
-0.09353336 0.20558465 0.2836584 -0.030716648 0.31464887 0.28661364 -0.11905482 0.82982254
-0.04062462 0.31672147 -0.40281436 0.30763394 0.25116536 -0.77517724 -0.49598077 -0.5346429
-0.192142 -0.30018654 0.35075423 0.03054182 -0.44061542 0.48168302 0.6432212 0.6780972
-0.18390246 0.09653269 0.25518182 0.28524897 0.48487967 -0.27941594 0.056426767 -0.64116126
0.49560165 -0.012795001 0.5095272 -0.56254214 -0.40908033 -0.45765424 0.30157226 -0.35747108
-0.30819753 -0.31620476 -0.1936522 -0.030196153 -0.554534 0.2762922 -0.21457843 -0.12330071

fc2.bias f4 [28]
00000000: 9ace 53bc e46a debd ba48 613d e657 71bd
00000010: e747 05bd c154 92be 9e6e 223e 8526 ab3c
00000020: 7446 9f3d f5a3 743e 1a54 8b3d 00f4 273c
00000030: fd82 be3b 012a 1a3e b5cb fc3c a1dd 4b3d
00000040: 182e 263d fe26 ba3b ca3e 91bd 432c 2abe
00000050: 7c1e d73d 3a2b 5fbe 627e 273e e93b 9a3c
00000060: 840e 1d3e 7021 ad3d 371c 423e 441f 1e3e
-0.012927676 -0.108602315 0.055000998 -0.058921717 -0.032539275 -0.28580287 0.1586251 0.020892391
0.0777711 0.2389067 0.068031505 0.010251045 0.005813955 0.15055086 0.030858854 0.04977191
0.040571302 0.0056809178 -0.07092054 -0.16618447 0.10503861 -0.21793833 0.16356805 0.018827396
0.15337569 0.08453643 0.18956076 0.15441614

fc3.weight f4 [5, 28]
00000000: 7a92 763f 892d 61bf a545 893f d344 d4bf
00000010: 7086 cdbf 7d16 eebe 6dfe b43f 15b4 63bf
00000020: ced3 39bf 36e4 883e 88b3 71bf 9c59 0c40
00000030: cb40 bdbf 988f e63f cbbb cb3f 1f55 41be
00000040: ae53 55bf 4beb ec3f a14f 38bf a72d 41bf
00000050: 38b5 b5be 1f6f 88bf 9fda 693f 791b 99be
00000060: 2594 723f 3ae1 06c0 d84a a73e 56ea ef3d
00000070: bd86 883f fbe3 ca3f 1c50 da3d 7626 623f
00000080: f6e9 773f a2f1 96bf f3cd 02be 6f9c 9bbf
00000090: 5e87 b1be 82ba 613f 6056 c3bf 8461 613f
000000a0: 30f1 d4bf 70fe 61bf 744a 643f cc50 883f
000000b0: 8a81 eabf 672b f8bf c2d8 34bf 765e 3bbf
000000c0: e936 0bc0 5c5a 87bf ee0a f3bf ce74 d13f
000000d0: 139f d83e cf88 dc3f c667 f83e 1f25 7a3f
000000e0: 9b2a 2ac0 7ceb 33c0 15f1 b33f 0e89 82bf
000000f0: 0672 bfbf a696 d9be d9e9 b3bf cb81 483e
00000100: fa71 073f 89c6 1f3f 4f5d cc3f 29ee 07c0
00000110: de7c fb3f 9cc4 8e3f cc83 21c0 d2cf 76bf
00000120: 27c9 d13e 416d c83f d41f d73f 5048 6dbf
00000130: 8f11 063f 5a3e 113e c898 d03f 8697 dcbf
00000140: 7bb8 a5bd 7cd0 813f ab8d 843f b23c bd3f
00000150: 72c5 05bf 160f 943f 3daa a5bf 6a97 b53f
00000160: 1876 d43f aced 453e aeb7 2ebf 5348 df3f
00000170: ecc5 803f 3df2 11c0 f791 003f 5aff 74bf
00000180: 3d25 513f c294 57c0 c077 c8be be11 a0be
00000190: d069 cc3f 8afb 6abf 5deb 4ebe fcd0 0cbf
000001a0: 4949 a03f 20a6 003f a213 91bf 1e49 993f
000001b0: e206 68bf 987a e83f 5a7e 813f 0682 e1bf
000001c0: bc3a 993f 9812 3d3f ad3f b0bf d800 383f
000001d0: 9290 b13e 0483 c23f 7803 f63e a5d9 da3e
000001e0: 33ff 4abf 3f02 943e 0950 97bb 2f6e 03be
000001f0: 1065 d83d c374 ae3f 935b 193f abc8 37bd
00000200: 3781 393f 35b8 09bf 0977 8cbe 547d 2e40
00000210: b34e 353f 63dc d73f 6c68 b1bd cdc9 ddbe
00000220: c165 0abf d646 15c0 580e 23c0 2574 8bbf
0.96317255 -0.87960106 1.0724379 -1.6583503 -1.6056652 -0.46501532 1.4140145 -0.8894666
-0.72588813 0.2673661 -0.9441457 2.1929693 -1.4785398 1.8012571 1.5916685 -0.18880127
-0.8333081 1.8509306 -0.71996504 -0.75460285 -0.3548982 -1.0658911 0.91349214 -0.29903772
0.947573 -2.1074967 0.3267429 0.11714618 1.0666119 1.5850824 0.10659811 0.88339937
0.9684137 -1.179249 -0.12773876 -1.2157115 -0.3467359 0.88175213 -1.5260735 0.8803942
-1.6636105 -0.88278866 0.89176106 1.0649657 -1.8320782 -1.9388245 -0.70643246 -0.7319101
-2.1752264 -1.057445 -1.898771 1.6363771 0.42308864 1.7229251 0.48516673 0.9771289
-2.6588504 -2.8112478 1.4057947 -1.0198076 -1.4956672 -0.42497748 -1.405574 0.19580762
0.5290829 0.62412316 1.5965976 -2.1239111 1.9647481 1.115375 -2.5236692 -0.9641086
0.4097378 1.5658342 1.6806588 -0.92688465 0.5237054 0.14183941 1.6296625 -1.7233741
-0.080918275 1.0141749 1.0355734 1.4784148 -0.522544 1.1567104 -1.2942578 1.4186833
1.6598539 0.19328946 -0.6824902 1.7443947 1.0060401 -2.28041 0.50222725 -0.95702136
0.81697446 -3.3684545 -0.39153862 -0.31263536 1.5969791 -0.9179007 -0.20206971 -0.55006385
1.2522365 0.50253487 -1.1334116 1.1975439 -0.906355 1.8162413 1.0116684 -1.7617805
1.1971049 0.73856497 -1.3769432 0.7187629 0.3468061 1.5196233 0.4804952 0.42744175
-0.79295653 0.28907964 -0.004617695 -0.12835 0.10566151 1.3629383 0.59905356 -0.044869106
0.7246279 -0.537967 -0.27434567 2.7263994 0.7082321 1.6864132 -0.08662495 -0.43318024
-0.54061514 -2.3324485 -2.5477505 -1.089482

fc3.bias f4 [5]
00000000: 5caa 013e 178b aebe d714 59be 4901 0c3e
00000010: 6e7e 1f3e
0.12662643 -0.34090492 -0.21199356 0.13672365 0.15575573
