DL/A2/net_task4.pth (torch_old, 67448 bytes, 6 tensors)

fc1.weight f4 [50, 300]
000000 a3 d7 8d bd 2c ab b7 3d 5c ad 43 3d 88 e4 21 3d
       -0.06925895 0.08968195 0.04777275 0.039524585
000010 0e f0 82 bd ca d5 44 bd 20 b8 d7 bb e8 45 36 3c
       -0.06393443 -0.048055448 -0.0065832287 0.011125065
000020 30 d1 b1 bb f0 45 40 bd 11 6a ac 3c 5a f3 d6 3e
       -0.0054265484 -0.046941698 0.02104667 0.41982538
000030 8f f0 d9 3d fe a6 41 3d 24 e4 99 3c 8e b7 a8 bc
       0.10641586 0.047278397 0.018785544 -0.020595338
000040 90 99 de 3c 59 92 04 be 19 36 8b 3d 90 c5 69 3b
       0.027172834 -0.12946452 0.06797428 0.0035670735
000050 63 e0 f5 bc 91 83 af bd 4a 08 19 3d 56 29 44 bd
       -0.030014222 -0.08570016 0.03736142 -0.047890984
000060 c4 2f 22 3d 1b 09 71 be 9a ef 13 3d 00 c3 d2 b9
       0.039596334 -0.2353863 0.036117174 -0.00040199608
000070 1e 6a 47 bd 20 b1 df 3b 85 47 9d bd 90 a7 fd bb
       -0.048685186 0.006826535 -0.07679657 -0.0077409223
000080 dc 83 01 3d ad dd 77 be 56 b2 5c bd 2b 19 87 bb
       0.03161989 -0.24205656 -0.053881012 -0.0041228733
000090 46 4c b5 bd 94 a6 1b bc 42 e7 a2 3d 50 c9 da bd
       -0.08852439 -0.009500165 0.07954265 -0.106829286
0000a0 fe ca 73 3d a8 ad f3 bd 47 2d cc bc 39 16 cb 3d
       0.05951976 -0.11898357 -0.024923934 0.09916348
0000b0 4e 72 1b 3d e7 4b 47 bd 07 15 6c 3e fe df 60 bd
       0.037950806 -0.04865637 0.23054896 -0.054901116
0000c0 15 c8 0e be ca b9 fa 3d 00 36 af 3b 3d 0a 0b be
       -0.13943513 0.12242468 0.0053470135 -0.13578124
0000d0 35 a2 9f be f4 20 9b 3d 44 e6 d1 bc 98 00 34 3c
       -0.31178442 0.07574645 -0.025622495 0.01098647
0000e0 00 1b c9 bb 69 ce 79 bc 45 c0 d9 3d f9 93 45 bd
       -0.006137252 -0.015246966 0.10632376 -0.04823682
0000f0 b8 42 21 3d 62 b5 82 bd 52 ea a7 bd c4 fc 67 3e
       0.03937027 -0.06382252 -0.0819899 0.22655016
000100 76 17 69 be df b8 b8 bc cc 43 ee 3c d4 c3 d6 3c
       -0.22762856 -0.02254909 0.029085062 0.026216425
000110 de 1f 03 bd c6 8b 16 bd 94 11 fd 3c 9f 18 48 bd
       -0.032012813 -0.036754392 0.030892171 -0.048851606
000120 0f c8 27 be 82 f0 3c 3d 68 b3 80 3c fe d9 28 3e
       -0.1638491 0.046127804 0.015710548 0.16489407
000130 34 ed 88 bc 84 f5 f0 bd 9d fa 82 be a3 a8 ad 3d
       -0.01671467 -0.117655784 -0.25581828 0.084794305
000140 29 7c 11 be 68 30 35 bd 9d 4e 8b bd 72 09 10 3d
       -0.1420752 -0.044235617 -0.06802104 0.035165258
000150 e1 23 18 bc 90 00 a6 3b 83 d4 aa 3d 46 2e 00 bd
       -0.009285898 0.005065985 0.08341315 -0.03129413
000160 32 9a 3a bd 61 f3 20 bd a1 05 ec 3d 0c bf 5b 3d
       -0.04555721 -0.039294604 0.11524511 0.053648993
000170 10 40 69 bd 15 f0 64 bd 95 a8 9a 3d 09 5a f5 ba
       -0.05694586 -0.055893023 0.07551686 -0.0018718849
000180 e0 69 11 bd 7c c3 ff 3c d7 48 a9 bc 67 cb e9 bc
       -0.03550136 0.031221144 -0.020664616 -0.028539373
000190 d7 43 98 3d d4 11 f3 bc ba f0 55 3d c4 f9 16 3d
       0.074348144 -0.029671587 0.052231528 0.03685929
0001a0 b0 f6 2c 3c 8c d4 9e 3d 60 95 1e bd 20 13 28 3c
       0.010556862 0.07755384 -0.038716674 0.010258466
0001b0 ab 82 a2 3d c0 07 44 bb e4 b5 ad 3c 56 af 37 bd
       0.07935079 -0.0029911846 0.021204896 -0.044844948
0001c0 80 76 d6 ba 1a 0c d4 3d 38 8b bb bc d1 91 93 3d
       -0.001636222 0.10353871 -0.022893533 0.07205547
0001d0 50 88 df 3d 58 68 51 bd d0 ee 2c 3d c3 99 fe 3d
       0.109146714 -0.0511249 0.042219937 0.124316715
0001e0 17 62 37 bd 84 13 28 3d 06 90 44 be eb e9 90 3d
       -0.04477128 0.041034237 -0.19195566 0.07075866
0001f0 2d 8e 96 3e b4 b0 d7 3c 5d af d9 bc e0 e5 11 3d
       0.29405347 0.026329376 -0.026572878 0.035619617
000200 e1 48 5f bd 2f 99 f1 bc 52 3e 8e 3d 23 d3 df 3c
       -0.054512862 -0.029491989 0.069454804 0.027322358
000210 ed f3 14 bd 8a f5 bf bc 24 23 8b 3c df d9 35 bd
       -0.03636544 -0.023432512 0.01698453 -0.04439723
000220 cf 7a b5 3d 00 8a 45 ba a4 66 15 bd 90 94 56 bb
       0.088613145 -0.0007535517 -0.03647484 -0.0032742359
000230 80 56 8c 3b 60 00 65 3d 40 f6 a0 bb 41 7d 41 bd
       0.0042827725 0.05590856 -0.004912168 -0.047238592
000240 5b cc b1 3e 73 35 b4 3d f0 68 c0 bb 90 ce 90 bb
       0.34726223 0.08799257 -0.0058718845 -0.0044191554
000250 60 f3 ab 3c e4 30 1e 3d 68 a5 93 bc 56 58 3a 3d
       0.020990074 0.038620844 -0.018023208 0.0454944
000260 e0 09 85 3c 61 9b d7 bc 55 3c 1a be 8d 6d f4 3d
       0.01624006 -0.026319208 -0.15062077 0.11934958
000270 46 2b a4 3d 16 74 34 bd c3 d7 59 3d 51 25 e1 3d
       0.08016066 -0.04405602 0.053184282 0.10993446
000280 35 90 a4 bc ce 61 b6 bd 70 6a 56 3d 50 d5 b6 bb
       -0.020088295 -0.089053735 0.0523476 -0.005579628
000290 dc fb f6 bc 1b a6 1c 3e b4 67 6d 3c 08 2b 2a 3e
       -0.030149393 0.15297739 0.014490057 0.16617978
0002a0 7e 6d 52 3d b8 10 73 3d 98 54 8a bd 08 ef a1 bc
       0.05137395 0.059342116 -0.06754416 -0.0197673
0002b0 ab ca 4a bd 67 9e 8e bd 20 2e fd bd ff 49 75 3c
       -0.049509685 -0.069638066 -0.12362313 0.014971255
0002c0 d5 1b 97 be 2b ee 76 3d e0 48 48 3c e9 58 50 bd
       -0.29513422 0.06028573 0.012224406 -0.05086604
0002d0 f4 aa fa bd d5 cd 1f be 59 9b 1b be 99 08 b7 bd
       -0.12239638 -0.15605862 -0.15195979 -0.08937187
0002e0 f4 a1 6d be 40 fa c4 3a 36 8b de 3d 16 32 2f bd
       -0.23206311 0.0015028194 0.10866396 -0.042772375
0002f0 08 c9 80 3d 3a 4b 4a bd 72 54 3c 3d e1 d6 8a 3c
       0.06288344 -0.049388148 0.04597897 0.016948165
000300 8a 56 a0 3d 50 2a ef 3b f5 b4 ac bd 30 6b 82 be
       0.07829006 0.007298745 -0.08432952 -0.25472403
000310 a6 7e 52 bd f6 16 4a 3d a8 e1 a6 bc b0 8f 15 3c
       -0.051390313 0.049338304 -0.020371273 0.009128496
000320 e3 32 e8 bc 4a e4 12 3e 6b 98 82 bc 0e a6 37 bd
       -0.028344577 0.14344898 -0.01594182 -0.044836096
000330 18 aa f1 bb e3 96 23 bd ed 3a 03 be a0 26 b5 ba
       -0.007375013 -0.03993882 -0.12815447 -0.0013820715
000340 ec 95 a9 bc 44 46 2b 3d 37 fe 83 bd c0 bc 9a 3a
       -0.020701371 0.041815057 -0.06444972 0.001180552
000350 42 3b 3f 3d 04 f9 cd 3b 00 a8 dc ba f3 dd 5d bd
       0.046687372 0.0062857885 -0.0016834736 -0.054166745
000360 24 83 43 3d ce 26 40 3d d6 c8 72 3c 58 7b 74 bc
       0.047732487 0.046912007 0.014818391 -0.014921986
000370 d9 bb 18 be 58 c0 e3 3c 70 03 42 3d f2 22 14 3d
       -0.14915408 0.027801678 0.04736656 0.03616614
000380 55 25 0c bd bd 27 3a bd 20 fe 91 3c a6 4d 6b bd
       -0.03421529 -0.045448054 0.017821372 -0.0574471
000390 22 28 50 bd 62 ba 1d bd 02 48 10 be 80 81 d7 bc
       -0.050819524 -0.038507827 -0.14089969 -0.026306868
0003a0 00 61 64 bc fd a2 0d bc 32 84 8d bc c6 18 4e bd
       -0.013939142 -0.0086448165 -0.01727495 -0.050316595
0003b0 1f 45 cc 3c 59 2f 80 be 44 58 01 3e 38 d5 b7 bc
       0.024935303 -0.25036123 0.12631327 -0.022440538
0003c0 16 2e b4 bc 68 ea c3 bc 40 05 75 3a 00 9c dc bc
       -0.021994632 -0.023915485 0.00093467906 -0.026929855
0003d0 8f a8 8c 3d e8 5f 8e 3b 30 61 f0 3b b0 8f 97 3c
       0.068680875 0.004344929 0.0073358044 0.018501133
0003e0 f0 5d 0f 3e 42 5c 0b bd ec 4b 95 bc 8b 0b 87 bc
       0.14000678 -0.03402353 -0.018224679 -0.016484996
0003f0 a0 e7 41 bd 4b f9 ed 3d 10 36 84 bb 4e b8 51 3d
       -0.047340035 0.116198145 -0.004034765 0.051201157

fc1.bias f4 [50]
000000 1f d7 ec bd 1d bc 9d bc 5f 56 0d 3d 0a da a1 3c
       -0.115644686 -0.019254738 0.034506198 0.01975729
000010 ed 1d c5 bc 75 1d eb 3c 51 67 e6 3c db 2c 0d be
       -0.024062121 0.02870057 0.028125437 -0.13786642
000020 7c 7b f6 bd ca 37 02 3d de db 41 bd 2c 2d 36 bb
       -0.120352715 0.031791486 -0.047328822 -0.002779792
000030 69 f2 1d bc 63 76 fb bd 6c 28 61 3d ac ad 77 bd
       -0.009640315 -0.1227844 0.05497019 -0.06046836
000040 10 4a 2c be c2 29 04 bd 3c 44 ea bd 0f 17 36 3c
       -0.16825128 -0.032266386 -0.11438796 0.011113896
000050 a9 29 cc bd a7 a7 44 3d 0e 3c 4f bd 23 5c 81 bb
       -0.099688835 0.04801145 -0.050594382 -0.003947751
000060 bf 49 33 bd 59 17 c3 bd 47 c4 26 3e dc 5b 0e be
       -0.0437715 -0.095259376 0.16285811 -0.13902229
000070 73 98 7a 3c 25 be 8b bd b3 0d 86 3d 32 a8 94 bd
       0.015295136 -0.068233766 0.06545582 -0.07258643
000080 d5 e1 b3 3c 81 32 22 bb 1a 75 31 bd ed d7 af 3c
       0.021958271 -0.002474934 -0.043324567 0.021465266
000090 8b 10 1f bd 42 55 b6 3b 3e ab 6c bb b2 ba e3 3b
       -0.038834136 0.0055643627 -0.003611281 0.006949746
0000a0 72 b0 11 be d2 df 25 3e 60 26 1b 3e 4d 52 09 be
       -0.14227465 0.16198662 0.15151358 -0.13410302
0000b0 48 5c 0b be be 14 85 bc c0 10 7d 3d e1 01 a6 bc
       -0.13609421 -0.016245242 0.061783552 -0.020264568
0000c0 7d c8 16 3b c4 a8 c5 3c
       0.0023007684 0.024128325

fc2.weight f4 [28, 50]
000000 9c 4a 81 3e 86 2f 91 bd 5c bc 79 be 3b a7 80 bd
       0.25252235 -0.070891425 -0.2438826 -0.06281897
000010 aa 74 08 bc 4a 54 13 be e0 b2 a9 bd 22 4e 2d 3e
       -0.008328596 -0.14387622 -0.08286071 0.16924337
000020 17 dc 07 3f e2 92 45 be ac 5a 83 3d 00 e2 d1 3d
       0.53070205 -0.19294313 0.06413779 0.10248184
000030 a6 7e 32 be 56 e1 2b be d6 6e e0 bd 89 b7 6f 3e
       -0.17431125 -0.16785178 -0.1095864 0.23409857
000040 e1 d8 75 3e c7 73 85 bd e7 e8 11 3d 31 88 c1 bd
       0.24008514 -0.065162234 0.035622504 -0.094498046
000050 30 79 4b 3e bd 12 19 be f3 8d 83 3e ca 1f e5 bd
       0.19870448 -0.14948554 0.25694236 -0.11187704
000060 1f 4d c9 bd 6b 6a 2f bd 7e be 05 bf ce 3f 45 3e
       -0.09829163 -0.042826097 -0.52243793 0.19262621
000070 1a 53 9d be 84 9d 8a 3c 71 62 bb be 9a 9a 96 bd
       -0.30727464 0.016920812 -0.36598542 -0.07353707
000080 ca 17 3b be 55 cb 2f 3e 66 64 af 3d f7 c8 1f bb
       -0.18270794 0.17167409 0.08564071 -0.002438126
000090 99 7b 7c 3c 8c d1 26 be da 0b b2 be 74 67 c6 3d
       0.015410327 -0.16290873 -0.34774667 0.09687701
0000a0 61 30 a3 3e 04 4d c9 be a0 4b 57 3e 14 ca 36 3e
       0.31872848 -0.3931657 0.21024942 0.17850524
0000b0 70 f3 b9 3e ef 57 4c bf 43 69 d3 bd 61 dd d6 3d
       0.3631854 -0.79821676 -0.103228115 0.104914434
0000c0 6e f8 13 3d 07 82 88 be 43 1e 7a bd de 74 e3 3e
       0.036125593 -0.26661703 -0.061064016 0.444251
0000d0 cc 23 50 3d af 43 f7 bd c5 96 a3 be 84 60 b0 be
       0.05081539 -0.120734565 -0.31950966 -0.34448636
0000e0 15 4d 10 bf 5f 78 f0 3e 4c 98 d7 be ad 25 82 3e
       -0.5636762 0.46966836 -0.4210838 0.2541937
0000f0 d5 a0 c0 3c b6 fe 1c 3e fd 2c d8 3e 54 c1 61 be
       0.02351419 0.1533154 0.42221823 -0.22046405
000100 48 2a 0a bd 1f 3b 12 be 24 65 aa 3e 27 61 15 3e
       -0.03373173 -0.14280365 0.3328029 0.14587842
000110 3a 9b 25 bd 2c b5 e5 3e 93 0a 44 bd 9a 09 58 bd
       -0.04043124 0.44864786 -0.047861647 -0.05274353
000120 13 a6 ee bd 63 7a 75 3d 8a 20 e8 3d 3c 1c 9c be
       -0.1165277 0.05993117 0.11334331 -0.3049029
000130 30 cf 35 3f eb e9 bf be 4c b1 4f be a0 32 89 3c
       0.7101927 -0.37483153 -0.20282477 0.016747773
000140 f5 71 00 3e ee c5 03 3f 6f 85 ab 3c 45 7c 1f 3e
       0.12543471 0.5147389 0.02093765 0.15574749
000150 e0 3f 69 3d bd dd 12 3d 22 50 1e be f1 a9 90 be
       0.05694568 0.035855997 -0.15460256 -0.28254655
000160 d1 d2 1b 3e 59 20 7c be 2c 15 51 be f2 3d 0b 3f
       0.15217139 -0.24621715 -0.20418233 0.54391396
000170 23 71 32 bf d9 5f d6 3d 94 2f c6 be 84 a6 6d 3e
       -0.6970388 0.104675 -0.38708174 0.23208052
000180 04 bb 7a 3e 88 30 b3 bd 42 fc 09 be 14 52 d5 3e
       0.24485403 -0.08749491 -0.13475135 0.41664183
000190 9b 4e 9c 3d 1d fc e4 3e 1c 90 61 3e f6 51 89 3e
       0.0763218 0.44723597 0.2202763 0.26820344
0001a0 f5 bd 51 be cc 17 06 3e 19 16 31 bf 73 29 67 bd
       -0.20482619 0.13095015 -0.69174343 -0.056436013
0001b0 b2 a2 13 bf 1e 2c 03 bc 3e df c8 bc fb 48 26 be
       -0.5767013 -0.008006124 -0.024520513 -0.16238777
0001c0 86 3b e7 bd 1c 9f 8a 3e c5 1c fd bc 48 f4 22 3e
       -0.1129065 0.27074516 -0.030897507 0.15913498
0001d0 35 ac a1 be 15 e3 68 3e 22 0e a9 3e d0 05 13 3e
       -0.31576696 0.22742875 0.33018595 0.14357686
0001e0 2a 64 19 bd fd b9 0c bd 9f 5b bc be 9e 75 e3 3b
       -0.03744904 -0.03435706 -0.3678865 0.0069415113
0001f0 e3 de 82 3e 59 77 41 3e 74 c2 07 3f df a6 74 be
       0.25560674 0.18893184 0.53031087 -0.23891781
000200 80 11 11 3e 65 71 d9 bd 58 ed 66 3e 8b 42 e1 bb
       0.14166832 -0.106173314 0.22551477 -0.0068743876
000210 0d fd 6b 3e e6 78 e4 3e af a8 e2 3d b2 a4 4c 3e
       0.2304575 0.44623488 0.1106733 0.19984701
000220 e8 cb 7a be b9 fa 34 3e 28 a2 6a bd 67 76 95 be
       -0.24491847 0.17673768 -0.05728355 -0.29191896
000230 09 db d1 bc c3 11 87 3e 96 e4 ad be 63 ff 28 bd
       -0.02561714 0.2638074 -0.3396346 -0.04125918
000240 36 8b 13 bf e8 70 93 3e b3 b5 75 3d 9d e3 e7 bd
       -0.57634294 0.28797078 0.059987735 -0.11322711
000250 4d e0 04 be 5a 44 bd bd 6b 64 8b be 26 1a a5 3e
       -0.12976189 -0.09241553 -0.2722505 0.32246512
000260 b3 20 91 3e 9c 55 1d bc 5c 49 66 bd 6b 0d b0 bd
       0.2834526 -0.00960293 -0.056222305 -0.08596309
000270 16 a4 23 be b0 04 d0 3e 69 3f 5b be 54 a3 19 3e
       -0.15980563 0.40628576 -0.21410908 0.15003711
000280 d9 1f 04 3d 12 1c fe bd 2c 81 a9 3e ec da 01 bf
       0.032256935 -0.12407698 0.33106363 -0.50724673
000290 14 42 1e be 15 9e 8f be 04 c1 21 3e 9c 1a c3 3e
       -0.15454894 -0.28050295 0.15796286 0.3810624
0002a0 3f c7 b2 be ac e1 af 3e 73 6b fe bb 6a fe 18 be
       -0.34917638 0.3435186 -0.007764274 -0.14940801
0002b0 e0 c2 a7 3e 2d bb 37 3e c2 20 9e 3b 9c 8e 65 be
       0.32765865 0.17942496 0.0048256824 -0.22417682
0002c0 8b 7b 01 3f da d2 1a bf 2c af 67 be ed cf 16 3e
       0.50579137 -0.60477984 -0.22625417 0.14727755
0002d0 5e d4 ab 3e 57 84 61 3e 84 bb 06 3e df 29 d4 bd
       0.3356046 0.2202314 0.13157469 -0.10359549
0002e0 ae 15 4d be a8 7a b7 3d c3 76 95 be 1a 54 6d be
       -0.20027801 0.08958942 -0.2919217 -0.23176613
0002f0 d0 e3 49 3f 88 3a e8 3a 6d 87 92 be af 0e fa 3e
       0.7886324 0.0017717639 -0.28618947 0.48839328
000300 3c 27 91 bd 2c e5 82 be c8 c1 42 be 86 1c 18 3d
       -0.070875615 -0.2556547 -0.19019234 0.037136577
000310 01 7f 4e 3e f4 68 e6 be 9e 0e 04 be ed 09 94 3e
       0.20165636 -0.45001948 -0.12896201 0.28913823
000320 de 5f 9f 3e fc 7a e5 3b a2 9a bb 3d 6b 31 c7 3c
       0.31127828 0.0070031863 0.09160353 0.024315557
000330 40 a8 58 3e b2 7b 30 3e cb 28 cd be 42 28 51 bc
       0.21157932 0.17234686 -0.40070185 -0.012765946
000340 f5 2e a9 3e e7 be cb be d5 e5 a1 bd 9f 74 22 be
       0.33043638 -0.39794084 -0.07905165 -0.158648
000350 4b 4f 3f be 58 50 8b 3d c8 19 38 be 4f c6 88 3e
       -0.18682592 0.06802434 -0.17978585 0.26713797
000360 04 86 fd 39 f1 a3 a0 3c e2 be 17 be e0 14 bc be
       0.0004835577 0.019609423 -0.1481891 -0.36734676
000370 f8 38 13 bd fa 69 5a be 12 92 cf 3c 52 59 5e be
       -0.035943 -0.2132949 0.025338206 -0.2171376
000380 1d 6e 6a 3e f0 56 3d 3e 33 89 ae be 8d d5 5d 3e
       0.22893567 0.18490195 -0.3408905 0.21663494
000390 d9 a8 7a be 39 f3 2b be 50 6b 3b be 42 8d 84 be
       -0.24478473 -0.16792001 -0.18302655 -0.2588902
0003a0 d3 36 76 bc 31 a3 db 3e e5 66 15 3d 3b 48 86 3d
       -0.01502772 0.42897943 0.03647508 0.065567456
0003b0 ae 21 0b be 30 d4 7b bd 92 c8 06 be 24 2a 5a 3e
       -0.13587067 -0.061481655 -0.13162449 0.21305138
0003c0 7f 45 cd 3e ba 40 75 be 71 35 32 bd 0b b0 e4 3d
       0.40092084 -0.23950472 -0.043507997 0.1116639
0003d0 f8 2d 72 3e 32 d6 33 bf 81 f4 e1 bb 2b f5 ad bd
       0.23650348 -0.7024871 -0.006895602 -0.08494028
0003e0 13 a3 e8 bd 22 fd c6 be 02 10 8e bd ab b0 ab bc
       -0.11359229 -0.38865 -0.06936647 -0.020958265
0003f0 95 6f f8 3e 5d 59 e7 bd f9 fc 81 3e 6a 67 2c 3e
       0.4852263 -0.112963416 0.25388315 0.16836324

fc2.bias f4 [28]
000000 5d 0a 2c be da 06 d4 bd b9 ef d5 bd 30 f8 db bd
       -0.16800828 -0.10352869 -0.10446114 -0.107406974
000010 e3 15 20 bd 17 79 aa 3d ab 81 28 bd 8d 34 a3 3d
       -0.039083373 0.08323877 -0.041139286 0.07969008
000020 2a 79 13 3d 7e 01 81 bd d4 0f e1 bc 11 4d cb 3d
       0.036004223 -0.06299113 -0.027473368 0.099268086
000030 ea e3 14 3e 74 c1 07 be 62 a8 a1 bc 9d 04 3b be
       0.14540067 -0.1325739 -0.019733611 -0.18263479
000040 39 09 64 bd be 31 f6 bb ff 84 92 3d 68 4a 77 3e
       -0.055672858 -0.007513254 0.07154273 0.24149477
000050 af 1c 0e be 5d 8c 75 3d af af 58 be ea 99 e5 3b
       -0.1387813 0.059948314 -0.21160768 0.0070068734
000060 c8 f8 01 3d f1 72 e8 3d 5a 97 7f bd f1 f1 6b 3d
       0.031731397 0.11350048 -0.0624002 0.05760378

fc3.weight f4 [5, 28]
000000 a3 83 a6 3a ef 47 7f 3f c4 83 4f 3f 82 3f 78 3f
       0.0012704026 0.99719137 0.81060433 0.96971905
000010 df fc c8 3e 7d 31 15 3f aa 3d b1 bf 83 f2 72 bf
       0.39255425 0.5827864 -1.3846943 -0.94901294
000020 03 80 28 bf 0d ae a0 bf 59 3c a1 bf c8 45 08 3f
       -0.6582033 -1.2553116 -1.2596542 0.5323148
000030 2d a9 1c 3f 5f 49 48 3f 6a 44 7b 3f a4 a8 54 3e
       0.6119564 0.78236955 0.98151267 0.20767456
000040 c3 85 4e 3f 71 6e 10 3f 3f cf 14 3f d3 6e 59 bf
       0.80672854 0.5641852 0.5812873 -0.8493473
000050 7c 26 68 be 6a 32 69 be a7 60 4a bf 2a fb dc be
       -0.2267093 -0.22773138 -0.7905373 -0.43160373
000060 66 a4 98 be e2 33 38 3f 5b 00 9b be 17 6c 29 3f
       -0.29812926 0.71954167 -0.3027371 0.66180557
000070 a0 e2 bf bd 0c 98 6a 3f ab 64 1a 3e f9 ee dd bd
       -0.09369397 0.91638255 0.15077464 -0.10836596
000080 95 31 1e bf 5e 3a a8 bf a5 dd 89 3f 2b 39 a6 3e
       -0.61794406 -1.3142812 1.0770766 0.3246549
000090 de a3 27 bf ee 16 2d be ba 91 a4 3f 7d 09 5e bf
       -0.65484416 -0.16903278 1.2856972 -0.8673323
0000a0 a0 4d 9d bf f6 9b 17 3f 9a 4b 2a 3f 6a 1b 27 3f
       -1.2289314 0.5922235 0.6652161 0.65276206
0000b0 ee 78 92 bf 34 0f 15 3f 81 de 3c bf 1a a7 93 bf
       -1.1443155 0.58226323 -0.73777014 -1.153537
0000c0 a5 43 87 be 3f 74 6b 3c 69 fd 82 3f 50 03 3d bf
       -0.26418796 0.014370977 1.0233585 -0.7383318
0000d0 ed a8 43 be ff 2e ff 3d 2a d6 3a 3d b3 d3 67 3e
       -0.19107409 0.12460136 0.0456144 0.2263935
0000e0 ec 8f 2e 3f 47 20 46 bf e0 98 ae bf 34 eb 61 3d
       0.6818836 -0.77393 -1.3640404 0.055155948
0000f0 c4 25 01 3e f0 04 05 3f f7 d6 11 be 5e 4f 59 3f
       0.12612063 0.5196066 -0.14242159 0.8488673
000100 db f6 be be 6c 13 6f 3f 7c 33 1b bf c3 e5 6c 3f
       -0.3729771 0.9338901 -0.60625434 0.9253809
000110 5c 20 08 bf 4c 7f 21 be e1 85 35 bf 45 68 57 bf
       -0.53174376 -0.15771216 -0.7090741 -0.8414348
000120 c8 28 19 bf f1 21 89 bf 5a ff cf 3c 6b 5b 74 3f
       -0.5982785 -1.0713483 0.025390316 0.9545199
000130 fc 2b 4f 3f b0 bc 92 3e ec 0f f2 be 87 73 eb 3f
       0.8092649 0.28659582 -0.47277772 1.8394631
000140 5b 43 a2 3f 35 f6 09 3f ac 3e a6 bf 16 41 ba 3e
       1.2676805 0.5389131 -1.2987876 0.36377782
000150 34 48 8f bf 0d 08 23 3d 05 69 23 3f 50 23 91 3e
       -1.119391 0.0398026 0.6383212 0.28347254
000160 20 87 3e bf e0 58 4d 3f fc 31 74 3e ea e8 37 3e
       -0.74424934 0.8021374 0.23847193 0.17959943
000170 5e 26 8c 3f 83 d6 db 3f 57 02 bd be 6d f8 6b bf
       1.0949209 1.7174839 -0.36915848 -0.9217594
000180 35 89 eb 3e 1e 80 b8 bf 9c 6d c7 3d 59 69 6e bf
       0.46003118 -1.4414098 0.09737703 -0.931295
000190 98 a1 0e bf f5 f3 3a 3e aa 56 06 3f 34 21 8c 3f
       -0.5571532 0.18257125 0.5247599 1.0947633
0001a0 39 ad 8f bf 68 2d b2 3e da 8f 6f 3e 41 2d 25 bf
       -1.1224738 0.34800267 0.23394719 -0.64522177
0001b0 9c fe 29 be a7 eb cb bf 82 3f 04 40 ba 10 14 bf
       -0.16601032 -1.593129 2.0663762 -0.5783802
0001c0 58 e4 2f 3f e5 5b 8e bf 5e 19 07 3e c9 7a c5 bf
       0.687078 -1.1121794 0.1319327 -1.5428096
0001d0 8b 49 70 3f 38 6c 01 bf b8 46 78 3e 5d 73 fe 3c
       0.9386222 -0.50555754 0.24245727 0.031060869
0001e0 a0 3c 4c 3f e7 29 c8 bf 39 a7 5a 3f 64 60 1f 3f
       0.79780006 -1.5637788 0.8541141 0.62256455
0001f0 61 4a 15 3f 3d 3c 1b 3f f9 1c a7 bf a3 6f 40 3f
       0.5831662 0.6063879 -1.3055717 0.75170344
000200 7f 66 c3 3f 2f 5b c4 be f9 d1 74 be d0 ef 19 bb
       1.5265654 -0.38350818 -0.23908223 -0.0023488887
000210 88 38 7f 3f 7b 80 50 bf bf 70 c2 3d 6d 98 6e be
       0.99695635 -0.81446046 0.09494161 -0.23300333
000220 95 83 6d bf 9d 69 b5 3e 52 16 6a be 25 d4 2d bf
       -0.92778903 0.3543214 -0.22860077 -0.6790183

fc3.bias f4 [5]
000000 24 0f b5 be 99 a0 b9 3e d2 56 5a be 32 f2 9d 3e
       -0.35363114 0.3625534 -0.21322182 0.30848843
000010 f5 06 4d 3d
       0.050055463
