DL/A2/net_task5.pth (torch_old, 67452 bytes, 6 tensors)

fc1.weight f4 [50, 300]
0.022887269 0.012647402 0.019908682 0.054932427 -0.013116216 -0.08074796 -0.112043194 0.086189866
0.0052802665 0.040646568 0.012227635 -0.030989047 -0.008547877 -0.10622197 0.067965 0.00076728186
0.03151183 0.0889204 -0.031674936 -0.043367058 0.08973862 -0.001105566 -0.08285194 0.021502338
0.05840654 0.04817786 -0.05196118 0.037890784 -0.024835074 0.09794072 -0.042925034 0.03776745
-0.007136862 -0.018227074 -0.015925882 0.03250025 0.009532224 0.024151532 -0.045704912 0.0043829377
0.0072658435 0.104279965 -0.08113559 0.042350333 -0.026047235 0.058514796 -0.040583964 -0.022218967
0.010906979 0.03387832 -0.042187996 -0.028221441 0.036786802 0.010070988 0.020767946 -0.02327548
0.035343677 -0.032952417 -0.099663034 -0.0138183255 0.05253406 0.011078365 0.04096832 -0.017224196
-0.029743506 0.016059708 -0.027605662 0.0011226488 0.0060544983 -0.0090377405 0.08770817 0.025456944
-0.077986345 -0.015554648 0.037755553 0.03989638 -0.04485878 0.03983242 0.052929923 0.056758486
0.04805397 0.012681678 0.041092295 0.038221985 -0.0048178593 0.023527756 0.045757063 -0.0016989482
0.10453284 0.028175814 -0.033234023 0.037413094 0.034062885 0.10894114 0.037459653 -0.029202288
-0.05696718 0.06652169 0.058199365 0.063624166 -0.0004763439 -0.009760099 0.020143248 0.061605718
-0.03503966 0.029637855 0.03847167 -0.0024466044 0.019633783 0.042691045 -0.0330726 -0.06743112
-0.028715974 -0.06638197 0.0037946065 -0.0049260375 0.034072936 -0.058955394 0.019156298 -0.010159135
-0.06739719 -0.036471546 -0.08359105 -0.070843644 0.10923939 0.030752584 0.012882754 0.055817127
0.0040062764 -0.053817123 -0.0068880734 0.040952533 -0.008364916 0.007812776 0.051610835 0.02699496
0.0102828 0.0025343 0.046582405 0.04294829 -0.0065962276 -0.110098675 0.05397581 -0.116339296
-0.011082916 0.117258005 -0.019739464 -0.028389059 -0.040091213 -0.013515624 -0.020493025 0.009767249
0.033143923 0.04747731 -0.06178931 -0.14456588 0.024535736 -0.06759946 -0.039459564 0.0419698
0.0042338343 0.15166087 0.001181296 -0.043212485 -0.014981285 0.017509785 0.0053443396 0.02622456
-0.061404504 -0.0050847866 0.086713366 -0.028518949 0.007827785 -0.010344778 0.079905756 -0.013165336
0.026495656 -0.019340467 -0.09525014 -0.018235091 -0.016062733 0.025449479 0.03136588 -0.06392834
0.03276732 0.004675366 -0.066679604 0.017271386 0.0014747585 0.009577858 -0.038848948 0.0029244004
0.041504923 0.009849687 -0.009055705 0.120474726 0.087019876 -0.0024297833 -0.097905464 -0.03325736
-0.017850418 -0.044421792 0.0075983503 0.023580806 0.03720536 0.08549598 0.015665464 -0.107273236
0.014869982 0.08958139 0.036633845 0.07783105 -0.052917212 0.028807115 -0.038568668 -0.027713776
-0.0005449837 0.030342909 0.023065822 0.02008746 0.03600027 0.15544897 -0.012047817 0.05544864
0.040937953 -0.028776988 -0.015475721 -0.01912866 0.016319936 0.07351275 0.018894127 -0.020368751
0.044084977 0.023577906 -0.030986045 -0.039821308 -0.040588662 -0.017486278 -0.037340257 0.02529818
-0.013539982 -0.0149812605 -0.012811565 -0.09569017 0.035939313 -0.07213586 -0.0052683917 -0.052203156
0.05212317 -0.05556648 -0.012786914 0.008978859 0.07084753 0.052986473 -0.048968364 0.06661012
00000000: 157e bb3c 0c37 4f3c 8817 a33c d300 613d
00000010: 66e5 56bc 305f a5bd e776 e5bd 5084 b03d
00000020: 1606 ad3b 047d 263d 6b56 483c bedc fdbc
00000030: 650c 0cbc e78a d9bd 3c31 8b3d 6a23 493a
00000040: 8c12 013d e61b b63d 94bd 01bd a8a1 31bd
00000050: e2c8 b73d a4e8 90ba 47ae a9bd ac25 b03c
00000060: b23b 6f3d 2656 453d 3fd5 54bd 5e33 1b3d
00000070: ed72 cbbc 2595 c83d 29d2 2fbd 0bb2 1a3d
00000080: 56dc e9bb f250 95bc ff76 82bc fb1e 053d
00000090: 0c2d 1c3c 6fd9 c53c 1335 3bbd bf9e 8f3b
000000a0: 5016 ee3b bc90 d53d 6b2a a6bd 8b77 2d3d
000000b0: 0361 d5bc 36ad 6f3d 5f3b 26bd 8d04 b6bc
000000c0: 30b3 323c fec3 0a3d 52cd 2cbd a730 e7bc
000000d0: c2ad 163d c900 253c 8a21 aa3c 38ac bebc
000000e0: 88c4 103d 1df9 06bd 221c ccbd 4266 62bc
000000f0: f42d 573d 0882 353c 66ce 273d c219 8dbc
00000100: a7a8 f3bc a68f 833c 4525 e2bc d825 933a
00000110: d064 c63b 0813 14bc 57a0 b33d 158b d03c
00000120: 4eb7 9fbd ecd8 7ebc 91a5 1a3d 636a 233d
00000130: d7bd 37bd 5227 233d 0ccd 583d 967b 683d
00000140: 3dd4 443d d0c6 4f3c 6550 283d a88e 1c3d
00000150: 22df 9dbb 48bd c03c c26b 3b3d 3eaf deba
00000160: 5015 d63d f7d0 e63c 6620 08bd 793e 193d
00000170: 8685 0b3d 881c df3d 4b6f 193d a339 efbc
00000180: 6b56 69bd 863c 883d 7562 6e3d 634d 823d
00000190: ccbd f9b9 d3e8 1fbc 7403 a53c 4756 7c3d
000001a0: bf85 0fbd 16cb f23c 7894 1d3d 3657 20bb
000001b0: 07d7 a03c cedc 2e3d 2277 07bd 5419 8abd
000001c0: c33d ebbc 45f3 87bd efae 783b 996a a1bb
000001d0: 1090 0b3d 367b 71bd abed 9c3c 8072 26bc
000001e0: 8a07 8abd 3063 15bd c931 abbd 7916 91bd
000001f0: e7b8 df3d d8ec fb3c 3012 533c 80a0 643d
00000200: 1547 833b 586f 5cbd 59b5 e1bb d8bd 273d
00000210: 000d 09bc 2801 003c e265 533d 8924 dd3c
00000220: 3079 283c 8016 263b 31cd 3e3d 8cea 2f3d
00000230: 2b25 d8bb 6a7b e1bd bd15 5d3d 4c43 eebd
00000240: 1e95 35bc f724 f03d a8b4 a1bc 2c90 e8bc
00000250: af36 24bd a370 5dbc fde0 a7bc d006 203c
00000260: ecc1 073d 9177 423d ca16 7dbd 1409 14be
00000270: 2bff c83c 9671 8abd 5aa0 21bd 86e8 2b3d
00000280: fabb 8a3b fd4c 1b3e b7d5 9a3a 93ff 30bd
00000290: 1074 75bc ae70 8f3c 921f af3b e3d4 d63c
000002a0: 4a83 7bbd 489e a6bb c796 b13d 92a0 e9bc
000002b0: 1c40 003c 257d 29bc a1a5 a33d 6cb3 57bc
000002c0: 6b0d d93c e66f 9ebc 8112 c3bd c261 95bc
000002d0: fe95 83bc 6d7b d03c 8279 003d ddec 82bd
000002e0: 0637 063d d033 993b 518f 88bd b97c 8d3c
000002f0: af4c c13a 73ec 1c3c 1320 1fbd 4ca7 3f3b
00000300: 1101 2a3d 9560 213c 615e 14bc 74bb f63d
00000310: 7a37 b23d 003d 1fbb a982 c8bd df38 08bd
00000320: 0a3b 92bc a0f3 35bd 95fb f83b 892c c13c
00000330: a664 183d 8418 af3d dc54 803c 12b2 dbbd
00000340: 3aa1 733c 7376 b73d 5f0d 163d e365 9f3d
00000350: b8bf 58bd e6fc eb3c 2efa 1dbd 0008 e3bc
00000360: 3ddd 0eba b191 f83c 89f4 bc3c 758e a43c
00000370: 0575 133d 042e 1f3e 3564 45bc 1d1e 633d
00000380: 8eae 273d b8bd ebbc e18d 7dbc b5b3 9cbc
00000390: 63b1 853c da8d 963d dbc7 9a3c 5edc a6bc
000003a0: 7392 343d 7426 c13c 72d6 fdbc ab1b 23bd
000003b0: 4c40 26bd 623f 8fbc 19f2 18bd 213e cf3c
000003c0: cdd6 5dbc f673 75bc 99e7 51bc 35f9 c3bd
000003d0: 1a35 133d f7bb 93bd 79a2 acbb fad2 55bd
000003e0: 1b7f 553d ad99 63bd 3480 51bc 101c 133c
000003f0: 8318 913d 5808 593d 0d93 48bd e36a 883d

fc1.bias f4 [50]
0.057744026 0.04370657 0.02393704 -0.038737398 0.048554607 -0.044405703 0.00953521 -0.08090718
0.03294341 -0.029870307 0.027950622 -0.0031642444 0.020010449 0.016513988 0.061005555 0.11803803
0.020436186 -0.034076005 -0.032990362 -0.066007376 -0.036638018 0.019478453 0.03345634 -0.07107789
0.028733177 -0.03901671 0.057615235 -0.0338564 -0.012091775 0.03816406 0.06447898 -0.019212369
-0.04452087 -0.044937987 0.0020809395 0.0022705805 0.029125199 0.028825391 -0.04020655 -0.045040052
0.024836438 0.011313437 -0.021945579 -0.04604192 -0.035745315 -0.037321128 0.024059298 0.046736047
-0.008368489 0.05648489
00000000: 0085 6c3d a905 333d 9c17 c43c 1bab 1ebd
00000010: 32e1 463d c1e2 35bd 9239 1c3c aab2 a5bd
00000020: abef 063d 93b2 f4bc b4f8 e43c 365f 4fbb
00000030: f4ec a33c 5848 873c f6e0 793d ecbd f13d
00000040: ca69 a73c 4893 0bbd e720 07bd e02e 87bd
00000050: bf11 16bd 4791 9f3c 8409 093d 4991 91bd
00000060: d761 eb3c fccf 1fbd f4fd 6b3d 02ad 0abd
00000070: 951c 46bc eb51 1c3d 8e0d 843d 4263 9dbc
00000080: 845b 36bd e510 38bd 5f60 083b 05ce 143b
00000090: f897 ee3c 3a23 ec3c a0af 24bd eb7b 38bd
000000a0: c975 cb3c fe5b 393c 37c7 b3bc 7496 3cbd
000000b0: ae69 12bd 0ade 18bd 0118 c53c 4c6e 3f3d
000000c0: fd1b 09bc b35c 673d

fc2.weight f4 [28, 50]
0.09706659 -0.06665192 0.08785306 -0.16129017 -0.06939999 -0.1898957 0.04322037 0.23940165
-0.3623499 0.10019812 -0.22579297 0.02159717 -0.09107884 0.05836908 -0.27118713 0.57221663
0.012491156 0.36445653 -0.33121818 -0.01204285 -0.11286634 0.040852472 0.30275333 0.015108121
0.04353541 -0.3190954 0.30224285 0.0076392605 0.08902623 -0.19123985 -0.044954076 -0.11144111
0.24032672 -0.2859737 0.014453641 -0.22065984 0.18550093 -0.06028863 0.13316806 0.23295231
0.41039246 -0.09191822 -0.03890178 -0.057117183 0.20536822 -0.2974904 -0.2613412 -0.189108
0.3267959 0.11817597 -0.045893077 0.12365152 -0.058035854 -0.06612594 0.095123135 -0.12517047
-0.14028823 0.100888826 -0.3372571 0.09482887 -0.24449924 0.27867627 -0.18368343 0.04671813
-0.35509422 0.44970408 -0.07281016 0.39649242 -0.1910332 0.06356876 -0.07203615 -0.17460532
0.33752525 0.19102487 -0.0924894 -0.18463016 0.15965283 -0.06972134 -0.076811105 -0.20831278
0.0013611749 0.025108552 0.064179376 -0.26867154 -0.10028757 -0.21790008 0.06609277 -0.12424647
0.19916855 -0.05066614 0.349712 -0.15991272 0.05857029 -0.031444333 0.16025852 0.11683162
-0.010268722 -0.28536758 0.37791806 0.11690282 0.1281525 0.06278297 -0.16675095 -0.020433918
0.13726689 -0.01682849 -0.014511618 -0.24295321 -0.03706242 0.046428382 0.20331582 -0.03307205
0.09358391 -0.12730722 0.046578508 -0.08630615 0.23349161 -0.20517103 0.13863897 -0.1868245
0.10905164 -0.17488828 -0.10056565 -0.2252197 -0.015306829 -0.029680284 -0.12854296 0.0019519151
-0.056895707 0.0935736 -0.08063503 0.13297474 -0.06723996 -0.023615498 0.09729852 0.0818451
0.02030531 0.33418056 -0.11078146 -0.22412117 -0.012047526 0.27785084 0.03704142 0.066735946
-0.2430627 0.06528659 0.19169164 -0.06746346 0.14557354 0.1285827 -0.090200454 0.16967525
0.12666927 -0.15499167 0.03294172 -0.2342715 0.06178236 0.16790591 -0.2387359 -0.101281196
-0.22978333 0.24890274 -0.07825099 0.19630858 0.038077664 0.23328005 -0.06397293 0.41121417
-0.123414844 0.068623155 0.13132061 -0.33516696 0.08072706 0.32832095 -0.071635365 -0.12110241
-0.24285538 -0.05576897 0.033151656 -0.19053802 -0.1935951 0.05225933 -0.15314308 -0.12830885
-0.3722764 -0.10089902 0.20525175 -0.124891445 -0.017884396 0.20628536 -0.016536321 0.020318117
0.21958336 0.16400146 0.05942669 0.26057008 0.1711276 -0.09464828 0.25925103 -0.05868122
0.38783574 0.33026358 -0.2754037 0.37592462 -0.05086334 0.027448144 0.0121333515 -0.2138478
-0.0035447823 0.10220592 -0.059067175 -0.029150892 0.07670884 -0.04838732 -0.10876252 -0.24650483
0.011183787 0.027735876 0.2806053 0.300597 0.16779824 -0.22396268 -0.20335089 -0.41485834
-0.031058034 -0.12970044 0.118147165 -0.313882 0.23467393 0.07354832 0.29071915 -0.28098595
-0.13210793 -0.014717093 0.1484446 0.030653132 -0.3687733 0.39819264 -0.30191404 -0.46094018
-0.13272828 0.35867792 -0.29258442 -0.20825242 -0.22411104 -0.2223958 0.27794996 -0.02608647
0.24443589 0.3022171 0.005302974 -0.025164744 -0.25214443 0.2075569 -0.087983266 0.05457937
00000000: d9ca c63d cd80 88bd 4eec b33d 4029 25be
00000010: 9521 8ebd 0574 42be d807 313d b525 753e
00000020: ed85 b9be ac34 cd3d 4636 67be 8cec b03c
00000030: 8b87 babd 6b14 6f3d 0ad9 8abe ca7c 123f
00000040: b5a7 4c3c 0c9a ba3e 6e95 a9be 604f 45bc
00000050: 7826 e7bd ec54 273d 7c02 9b3e 0d88 773c
00000060: 3052 323d 7960 a3be 93bf 9a3e c352 fa3b
00000070: 6253 b63d 61d4 43be c421 38bd 3d3b e4bd
00000080: 3518 763e 256b 92be f7ce 6c3c a7f4 61be
00000090: f5f3 3d3e 36f1 76bd 355d 083e 0d8b 6e3e
000000a0: f61e d23e 9f3f bcbd 7957 1fbd b5f3 69bd
000000b0: 0c4c 523e a950 98be 84ce 85be 87a5 41be
000000c0: cb51 a73e 3e06 f23d 61fa 3bbd 023d fd3d
000000d0: 01b7 6dbd 096d 87bd ebcf c23d b02c 00be
000000e0: b8a7 0fbe cd9e ce3d f6ac acbe a335 c23d
000000f0: 025e 7abe a8ae 8e3e 8217 3cbe 835b 3f3d
00000100: e9ce b5be 9d3f e63e 7e1d 95bd 0e01 cb3e
00000110: 359e 43be 5730 823d b087 93bd bdcb 32be
00000120: 1cd0 ac3e 069c 433e 156b bdbd b00f 3dbe
00000130: 087c 233e 10ca 8ebd 244f 9dbd f24f 55be
00000140: 7369 b23a 73b0 cd3c 7a70 833d 518f 89be
00000150: 9263 cdbd 3321 5fbe a55b 873d ef74 febd
00000160: d7f2 4b3e 4c87 4fbd 740d b33e 29c0 23be
00000170: 67e7 6f3d c6cb 00bd cf1a 243e 6b45 ef3d
00000180: 243e 28bc b31b 92be 7a7e c13e bf6a ef3d
00000190: 693a 033e 5c94 803d c3c0 2abe 0865 a7bc
000001a0: b18f 0c3e e7db 89bc 23c2 6dbc bac8 78be
000001b0: c4ce 17bd b02b 3e3d 0632 503e 8f76 07bd
000001c0: eca8 bf3d d35c 02be 1bc9 3e3d 47c1 b0bd
000001d0: 6d18 6f3e 5b18 52be 60f7 0d3e ec4e 3fbe
000001e0: 7756 df3d ea15 33be 5df5 cdbd fe9f 66be
000001f0: 7ec9 7abc 1124 f3bc c4a0 03be 67d7 ff3a
00000200: 790b 69bd 84a3 bf3d fb23 a5bd 882a 083e
00000210: 1bb5 89bd 4a75 c1bc 7244 c73d 679e a73d
00000220: 5257 a63c b719 ab3e 64e1 e2bd 0580 65be
00000230: fd62 45bc 7742 8e3e beb8 173d dbac 883d
00000240: 6ee5 78be fab4 853d d04a 443e 482a 8abd
00000250: 3b11 153e 2fab 033e 04bb b8bd 59bf 2d3e
00000260: 97b5 013e 23b6 1ebe e6ed 063d dee4 6fbe
00000270: 800f 7d3d 87ef 2b3e 2f77 74be 846c cfbd
00000280: 524c 6bbe 5ce0 7e3e 0e42 a0bd 1e05 493e
00000290: 53f7 1b3d f7e0 6e3e 3d04 83bd aa8a d23e
000002a0: ecc0 fcbd 4c8a 8c3d e978 063e 019b abbe
000002b0: 3b54 a53d af19 a83e 90b5 92bd 8a04 f8bd
000002c0: 15af 78be 016e 64bd 08ca 073d 661c 43be
000002d0: cb3d 46be e10d 563d 8ad1 1cbe 6563 03be
000002e0: 039b bebe 25a4 cebd 842d 523e 16c7 ffbd
000002f0: 4c82 92bc 783c 533e 2e77 87bc 2e72 a63c
00000300: 76da 603e 00f0 273e 6769 733d 7169 853e
00000310: 133c 2f3e f5d6 c1bd 8dbc 843e b85b 70bd
00000320: 6892 c63e 4f18 a93e b701 8dbe 3179 c03e
00000330: 1456 50bd eeda e03c f7ca 463c ebfa 5abe
00000340: 944f 68bb 5651 d13d 6cf0 71bd dacd eebc
00000350: 8619 9d3d c831 46bd e2be debd c36b 7cbe
00000360: 343c 373c 5936 e33c 7fab 8f3e dae7 993e
00000370: 4dd3 2b3e 7956 65be 373b 50be 5068 d4be
00000380: 6b6d febc 31d0 04be 24f7 f13d 24b5 a0be
00000390: 5d4e 703e 80a0 963d 24d9 943e 64dd 8fbe
000003a0: 4d47 07be f61f 71bc dc01 183e 471c fb3c
000003b0: dbcf bcbe e8df cb3e 7a94 9abe 5a00 ecbe
000003c0: ece9 07be a2a4 b73e a0cd 95be 1f40 55be
000003d0: 5d7d 65be b9bb 63be 754f 8e3e 4bb3 d5bc
000003e0: 674d 7a3e 33bc 9a3e 92c4 ad3b 4b26 cebc
000003f0: 1319 81be cc89 543e 9230 b4bd 9e8e 5f3d

fc2.bias f4 [28]
-0.12478685 -0.00083884946 -0.1330038 -0.112790905 0.1506757 0.12170359 0.07469513 -0.0069251014
0.03388983 0.03504306 -0.039942253 0.025333876 0.109298185 0.05209091 -0.12279842 -0.09302582
0.055977777 0.06020999 -0.052066263 -0.07504538 -0.050186913 0.09244852 0.014664726 -0.11454867
-0.093287654 -0.061620552 -0.07642403 -0.049835596
00000000: 3f90 ffbd 3ce6 5bba 2632 08be ebfe e6bd
00000010: bb4a 1a3e bb3f f93d c3f9 983d f6eb e2bb
00000020: 10d0 0a3d 5089 0f3d 7d9a 23bd fd88 cf3c
00000030: bad7 df3d 475d 553d bd7d fbbd 5284 bebd
00000040: f448 653d c09e 763d 6f43 55bd 64b1 99bd
00000050: cb90 4dbd a655 bd3d 5244 703c 7e98 eabd
00000060: 990d bfbd d565 7cbd 3484 9cbd 6920 4cbd

fc3.weight f4 [5, 28]
0.37692112 0.45428386 -0.08414567 0.08070239 0.8025937 -0.06355091 -0.27430382 -0.23367174
0.17276534 0.84581536 0.46840626 -0.95222837 0.16087498 0.030906338 0.17644545 0.104827546
0.3910574 -0.8476782 -0.010457856 -0.5078072 -0.055114202 0.40149996 -0.45235068 -0.48942095
0.26323113 -0.68541145 0.28817946 0.12622161 0.9294161 0.54300344 -0.49593794 0.32466248
-1.2548139 -0.90260476 1.1817003 0.54875237 0.41258478 -1.2665579 0.12166639 -0.88286096
-0.3888529 1.1683899 -0.05271845 -0.4557763 0.2730092 -0.008537491 -0.20857649 -0.86576366
1.1658661 0.015241859 1.2448845 0.17568186 -0.2903313 -1.1953354 0.89377505 -0.19900742
-0.050543297 -0.5039709 0.46485075 -0.7657698 0.50383276 0.8331704 -0.21050633 -0.45296085
-0.3251241 0.7219856 -0.5944502 0.72045845 0.3403633 -0.59176713 -0.16431372 -0.49133372
0.06118353 0.14672105 -0.4855174 0.39552966 0.025855076 -0.1374833 -0.28460586 0.092933126
-0.14157897 0.6564988 -0.6559124 -0.14372876 -0.083313525 0.18948407 0.38975367 0.67072636
-0.060461618 -0.23365036 -0.56153 -0.25366855 -0.4097099 -0.27279514 0.6447859 0.16597238
-0.59867555 -0.1508561 -0.09247493 0.77290964 -0.2758522 0.54836315 0.41588554 -0.3470603
-0.19069761 0.47413644 -0.8910438 -0.038412232 0.37627745 0.3916383 0.4249193 -0.10076614
-1.0009078 -0.8565147 -0.020664666 -0.23383701 -0.18529348 0.18087392 0.12617378 0.26579818
0.03165936 -0.089164935 -0.54785 1.1027117 0.6487478 -0.52723 -0.2646116 -0.013033691
-0.09811741 0.42097202 0.045652457 1.1330053 -0.9993036 -0.64534897 0.3102051 0.29308617
-0.025838926 0.7846699 -0.8295484 0.18771592
00000000: cefb c03e e597 e83e 9154 acbd 4b47 a53d
00000010: c876 4d3f fb26 82bd 8d71 8cbe a547 6fbe
00000020: 66e9 303e 5b87 583f f2d2 ef3e 3dc5 73bf
00000030: 69bc 243e 4a2f fd3c 1eae 343e d3af d63d
00000040: ad38 c83e 7001 59bf 6d57 2bbc a7ff 01bf
00000050: 6ebf 61bd 6791 cd3e 829a e7be 6295 fabe
00000060: 3bc6 863e 2077 2fbf 428c 933e 3d40 013e
00000070: 37ee 6d3f 4602 0b3f 94eb fdbe 293a a63e
00000080: be9d a0bf 1b11 67bf f541 973f 097b 0c3f
00000090: 503e d33e 921e a2bf 3a2c f93d 2d03 62bf
000000a0: ba17 c7be cd8d 953f 4def 57bd 835b e9be
000000b0: ddc7 8b3e d5e0 0bbc 1395 55be b0a2 5dbf
000000c0: 1a3b 953f fdb8 793c 6058 9f3f f2e5 333e
000000d0: 4ea6 94be c000 99bf 71ce 643f 9ac8 4bbe
000000e0: 7d06 4fbd 3d04 01bf eb00 ee3e 7d09 44bf
000000f0: 2ffb 003f a84a 553f f98e 57be 7cea e7be
00000100: ab76 a6be 0cd4 383f e32d 18bf f76f 383f
00000110: 1944 ae3e 0d7e 17bf db41 28be 1890 fbbe
00000120: 959b 7a3d 0b3e 163e bd95 f8be dd82 ca3e
00000130: 06ce d33c 6cc8 0cbe dcb7 91be b953 be3d
00000140: 14fa 10be 4e10 283f e0e9 27bf a22d 13be
00000150: 48a0 aabd 1d08 423e cb8d c73e b9b4 2b3f
00000160: 9aa6 77bd 0a42 6fbe 6ec0 0fbf d8e0 81be
00000170: 7fc5 d1be ceab 8bbe b010 253f aaf4 293e
00000180: cd42 19bf 057a 1abe 7f63 bdbd 68dd 453f
00000190: 803c 8dbe 8761 0c3f f3ee d43e e3b1 b1be
000001a0: 3c46 43be 03c2 f23e 721b 64bf 2556 1dbd
000001b0: 70a7 c03e d184 c83e 068f d93e 7a5e cebd
000001c0: bf1d 80bf 8c44 5bbf f248 a9bc f872 6fbe
000001d0: 93bd 3dbe 0337 393e b333 013e b316 883e
000001e0: 3fad 013d 1b9c b6bd e63f 0cbf a825 8d3f
000001f0: 5614 263f 8cf8 06bf 2c7b 87be 438b 55bc
00000200: c8f1 c8bd a589 d73e 12fe 3a3d 5106 913f
00000210: 5cd2 7fbf 9735 25bf 34d3 9e3e 640f 963e
00000220: 28ac d3bc 20e0 483f 495d 54bf 9a38 403e

fc3.bias f4 [5]
-0.06975135 -0.16364066 0.2753919 -0.22015347 -0.08377062
00000000: ccd9 8ebd 6b91 27be 2b00 8d3e e96f 61be
00000010: ee8f abbd
